graph/checkpoints/best_rgcn.pt (torch, 233129 bytes, 8 tensors)

conv1.weight f4 [2, 20, 128]
00000000: 27bc a13d 1255 913d 5e53 7dbc f5f3 1c3e
00000010: f345 20bc 2ea6 6c3c 9cd0 babd eee9 ac3d
00000020: 3318 f53d 254b b4bd b628 b33d d8d5 f43d
00000030: e138 c33d b60c 57bb 9043 703d eee6 03bd
00000040: 81a1 c43d 026c 133d f706 52bd c43a 8c3c
00000050: 10fe 18bd dc39 08bd ca95 2abd eec9 933d
00000060: c5b1 3cbd fa0a c5bc 5d60 de3c 003b c8bd
00000070: d88b a53d 046e f0bd 45e7 c93d cffd a0bd
00000080: b303 883d f363 3c3d 97b7 9abc f439 3d3d
00000090: 6bff 7cbc 598c 013e 8c1d 11bc c4d5 30bd
000000a0: 668e 593d 8311 afbc dd71 943c 4fe5 c83d
000000b0: a425 613d 6ccb 06bd 287f cb3c aa76 3fbc
000000c0: 9094 e13d 5fa5 a2bd 4cfa ccbd 6016 b9bc
000000d0: 374c b5bd ca56 f93d 922f 8a3c 8807 963d
000000e0: f975 cf3c a483 543d efe0 523d 6033 3cbd
000000f0: 5ea8 bb3a d473 cabd 1e05 883c 6840 56bd
00000100: dcaa 953d 1e04 b7bc 9861 0c3e e0fc 27bd
00000110: f087 1dbd b2d0 ccbc e8e7 e33d 9eaa 9f3c
00000120: 27ab 3a3e 6321 a7bd f0d1 47be 241c 46bd
00000130: ad31 33bc eed0 9b3c 25ac 833c 2090 f93d
00000140: 18c4 26bd 2cfd 43bd 48bf 9f3d af53 18bd
00000150: 33a8 8a3d 5ab0 bc3c 69c4 b23d 686f 78bd
00000160: 6b73 d8bc 2a4e 2a3d 7b18 883c 367b 953b
00000170: 76d1 8f3d d84a 933d 6406 34bd 46fa 49bd
00000180: 8969 f83d 5fd1 bbbd 46e9 10bd 5565 a7bd
00000190: e446 e1bd aa07 a9bc f56c 803c fd93 d4bd
000001a0: badc 4a3d 9866 f6bc 2425 0fbe 42c2 2fbd
000001b0: ce7c 01be 57f5 40bd 0fbf b33d cba5 8d3d
000001c0: 9ac4 c63c 6c56 bfbd f6bc d4bd 3eef 97bc
000001d0: cc3a 673d 4e71 abbd ece4 96bd 5119 6fbd
000001e0: 73d5 c93c 4a98 35bd 4309 f43c b432 b2bc
000001f0: c9c7 73bd 46d3 0bbd 097d bcbd c2b7 9ebd
00000200: c8e7 163e 2ed9 f8bc 80d0 513d 89b0 be38
00000210: ca9b 64bd 3ba8 133e fae2 b7bc bbf7 a83a
00000220: 69e4 87bd 3fe3 d9bd 1875 f73c 63d9 1ebd
00000230: 30a7 2ebd a89a 3ebd ea7a d23d d793 aebd
00000240: 8068 38bd 0d1f 0fbd 85b1 193d fb2e 943d
00000250: f293 d43d e080 fcbd 6531 f43c 738b a2bd
00000260: a88c 733d 5f52 3dbe 8efb 943d b7fa 9bbd
00000270: 75d0 f43a e37f 95bb 3ed4 e2ba f085 09bd
00000280: 7956 3e3d 238c 223a 5faa 963d 6d3e 37bd
00000290: f9e1 6ab9 f7bf 50bd 0e0a 9b3a 0aa2 933d
000002a0: 7c96 153d 3f8a 1fbd 985c 26bd b096 af3c
000002b0: 1f94 e5ba f789 1c39 a655 39bd ae03 9f3c
000002c0: 2913 59bd 81c3 c53c d0b2 683d 7671 adbd
000002d0: 8c6b fdbc 8855 4bbd b794 efbc fbd9 51bd
000002e0: e9fb b03d 6828 943d 458d f4bc 6ca9 a5bc
000002f0: 87f6 d6bd 65bb 3b3d 5d8a af3b 649b 06be
00000300: f488 073e 3222 e43d f18e 383d 20c1 883d
00000310: e2a3 73bc 3070 193c 8091 663c f0af 383c
00000320: e8b5 8bbd 3dda c43c d6ff 1d3e cd20 083d
00000330: 0e90 77bd c488 31be c65f 0ebd 743d 56bd
00000340: ebfe d5bd ea84 f0bb a180 fc3c 6b0b 05bd
00000350: 5a14 8cbd 0e2c 03bd b329 dcbc 9676 f73d
00000360: 77c3 813d cb94 103d bd1d 8c3d 383f a3bc
00000370: 25c2 38bd 26c6 903d 08fd 61bb fc4a 7cbb
00000380: 486f 20be cc1b 973d 44b9 443d 8066 b9bc
00000390: 49d1 f2bc aa16 3abd 829a 43bd 2546 8f3d
000003a0: c2c5 233c 381e 833d b42e 033e ff54 e33d
000003b0: b72e afbd 6c85 02be ee14 77bd 407b afbd
000003c0: ab46 cb3b e07e 27bd 3069 d7bc ef6f b5bc
000003d0: cd5b a53c 8903 7ebd d148 62bd 2189 813d
000003e0: 6c89 94bd 3d55 053d ea6e c3bc 77d6 c63c
000003f0: 62cb 8c3c 5288 3c3c d410 1cbe f174 70bd
0.07897215 0.07096304 -0.015461771 0.15327437 -0.009782302 0.014443917 -0.0912182 0.08443056
0.11967506 -0.08803395 0.08747999 0.1195485 0.09532333 -0.0032813973 0.058658183 -0.032202654
0.09601117 0.035991676 -0.051276173 0.017117865 -0.037351668 -0.033258304 -0.041646756 0.072162494
-0.04606797 -0.024053086 0.027145559 -0.09776878 0.08083314 -0.11739734 0.09858564 -0.0786091
0.066413306 0.045993757 -0.01888637 0.046197847 -0.015441756 0.12651195 -0.008857142 -0.043172613
0.053114317 -0.021370655 0.0181207 0.09809362 0.054967538 -0.032908842 0.024840906 -0.011686007
0.11014664 -0.07941698 -0.10008678 -0.022593677 -0.088524275 0.12174757 0.016868386 0.07325655
0.025324808 0.051883355 0.051484045 -0.045947433 0.0014317145 -0.09885374 0.016604003 -0.052307516
0.073079795 -0.02234083 0.13709104 -0.041012645 -0.03845972 -0.025001857 0.11128217 0.019490536
0.18229352 -0.08160665 -0.19513679 -0.04836668 -0.010937137 0.019020524 0.016073296 0.12185693
-0.040714353 -0.047848865 0.07800156 -0.037189182 0.06770363 0.02303331 0.087288685 -0.06065312
-0.026422223 0.04157845 0.016613236 0.004561807 0.070223734 0.0719201 -0.043951407 -0.049310945
0.12129504 -0.09170794 -0.035378717 -0.081736244 -0.109998494 -0.020633537 0.015676955 -0.10379789
0.049526908 -0.030078217 -0.13979012 -0.042909868 -0.12645265 -0.047108974 0.08776676 0.06916388
0.024263669 -0.093426555 -0.10387604 -0.018546697 0.056452557 -0.083712205 -0.07367882 -0.058373753
0.024637913 -0.044334687 0.029789573 -0.021752693 -0.0595167 -0.034137033 -0.09203536 -0.07749893
0.14736855 -0.030376997 0.05122423 9.092788e-05 -0.055812635 0.14419644 -0.022447098 0.0012891212
-0.06635363 -0.10639047 0.030207202 -0.038781535 -0.04263991 -0.04653421 0.1027735 -0.08524292
-0.045021534 -0.03494172 0.03752281 0.07235523 0.10379781 -0.123292685 0.02980871 -0.07936754
0.059460312 -0.18488453 0.07274543 -0.076161794 0.0018677848 -0.0045623644 -0.0017305685 -0.033575
0.046469186 0.00062006916 0.073567145 -0.04473727 -0.0002240016 -0.050964322 0.0011828558 0.07208641
0.036520466 -0.0389502 -0.040615648 0.021434158 -0.0017515457 0.00014928715 -0.045247696 0.019410934
-0.05299679 0.024141075 0.056811154 -0.084689066 -0.030935071 -0.049642116 -0.029245717 -0.051233273
0.08641798 0.072342694 -0.029852519 -0.020222388 -0.1049624 0.04583301 0.0053570704 -0.13145214
0.13235837 0.11139335 0.045058195 0.06677461 -0.014870616 0.0093651265 0.014072776 0.0112724155
-0.06821805 0.024029845 0.15429625 0.033234406 -0.060440116 -0.17337328 -0.034759305 -0.0523047
-0.10449012 -0.0073400633 0.030823054 -0.032481592 -0.06839819 -0.032024436 -0.026875352 0.12083165
0.0633611 0.03529815 0.068416096 -0.019927606 -0.045107026 0.07069044 -0.0034483094 -0.0038496843
-0.1566745 0.07378349 0.048028246 -0.022631884 -0.02964081 -0.04543177 -0.047754772 0.06995801
0.00999588 0.06402248 0.12810785 0.11100196 -0.08553832 -0.12746209 -0.060322694 -0.0856843
0.0062034926 -0.04089248 -0.026295274 -0.0221481 0.020185376 -0.06201509 -0.055245224 0.063249834
-0.07252774 0.032551993 -0.023856599 0.024272187 0.017186824 0.011507111 -0.15240794 -0.058705274

conv1.root f4 [20, 128]
00000000: 79ea 9bbd 0cf5 f3bd ea0f 92bd cf74 993c
00000010: b89c ba3d cca0 94bd e00e 543d bcaa 953d
00000020: 3322 8fbd 0ce7 113d 3432 8c3c 4829 c0bd
00000030: 5505 9aba 251e bdbd 17f7 1f3e aeb0 3d3d
00000040: 94b7 fd3d fe61 013e 55f8 223e a131 423e
00000050: 4152 f53d 360b d0bd 1b71 353e 8b7f bc3d
00000060: b5cd 82bd fc74 17bd 92e1 d13d e615 8f3d
00000070: d36e 4d3e 6f93 313c aa89 4d3e 16b1 febd
00000080: f49c db3c 31ac 0b3d fb7e 45bc 3ac1 263e
00000090: cc14 ad3d 4171 553d 7638 f93d 4e19 d03a
000000a0: 04a2 ffbc ac0a 19be 2bf4 8ebd 4a2c 02bd
000000b0: 6b95 d73d 2c38 003e cf57 c0bd 86cd 38bd
000000c0: 9d46 613e 67ef 35bd d9d4 523e ebac 033e
000000d0: 1b43 d739 331d 82bd e0bb e43d 7674 cb3d
000000e0: 6b61 123e b6be 3f3d afbb c33d 0b36 67be
000000f0: 8cbb 913d 4e13 093c 180d 103e 4372 49bd
00000100: 32f4 8bbd 51d1 c8bd 8e20 04be 0077 553d
00000110: 7490 0b3c b727 a63d 3b42 87ba 0d95 28bc
00000120: aabc 36ba 1da5 a63d aca7 27be 4e45 093d
00000130: 0c8f 153e 3db4 1a3e 1c0d 84bd f122 223e
00000140: 1128 12bd 101b a53d ca03 0b3e 9914 6dbb
00000150: 48bf 8a3d 2dac d7bd fe0a 3fbd 410d 6abd
00000160: 0c98 1fbe a24d acbc b908 513d f771 d6bc
00000170: 5abf 2d3e 8d64 bbbd de5d 6e3d 923b cc3d
00000180: 6d2f 4c3e 2a03 ffbc a051 d7bd 6018 fbbc
00000190: 5456 d63d 8d47 52bb 1b3e 133e f3d6 cbbd
000001a0: f87c 91bd 1e15 ab3d 1325 7c3d 283e e6bd
000001b0: 04eb 223e 9b6f 5bbc f0f7 48be c0fb 703d
000001c0: d948 83bd 837a d3bd 309f 1fbe f3c4 003d
000001d0: 3d80 763d df94 003e cf81 d3bd 15a0 b7bd
000001e0: ec16 2a3e 40db 56bd 3717 93bd 7160 ccbc
000001f0: 6d6a 4fbe 7fdb 28be b057 303e 8af6 c23c
00000200: e520 233d 7150 513d a340 d23d 60a1 bb3d
00000210: bf45 c33d 5473 8c3d 46b9 c33d fd40 083e
00000220: 37ac 49bd 6b59 b0ba 221b 2cbd e4cd 11be
00000230: bafc 203e 0a6c dabd 3488 cebb b20c 1abe
00000240: c115 24be 42e3 953c 6941 8e3d edd0 89be
00000250: 857f 703d 8fb2 e8bd 6e9c 0c3c cc87 c53d
00000260: 5695 523c 12c8 4bbe 008b be3d 2eef 1bbe
00000270: 7abb 02be 6364 bbbd 8d88 e33d 9c02 a93d
00000280: 1bc4 f4bc c74b 453d b533 053e dd59 7c3d
00000290: 0fb0 36be 0240 e93b b10c 073e fc08 f53d
000002a0: 5740 28bd 34bc 043e f7b0 913c beb6 3a3c
000002b0: 7522 d23d f365 223c 07cc a9bd 72a1 1a3c
000002c0: d5f5 1e3e 5f17 a63d 992b 23be 97e7 753d
000002d0: 6b56 093b f36f 04be 5df6 1abe ce17 c2bd
000002e0: dede 633c 471e f83d f4a3 7cbd 1ce8 b03d
000002f0: e2d6 93bc 73d8 993c 25ff 893d d2e4 e0bd
00000300: 33ed 583d a2b5 ba3c c0aa a93d 19f6 6c3c
00000310: 75ee 8dbd db51 c0bd 5a3a 60bc bc86 4c3d
00000320: 300c 313e f809 95bd 1685 67bb 9092 e43d
00000330: f9ef 85be d9c7 813d 81b4 a53d 4e7c 3ebe
00000340: f2c2 2a3c f820 65be db8c a7bc fd53 36be
00000350: d043 3f3e 51e2 d03c d851 ce3d 5911 59be
00000360: d26c 30bd 75e2 f03c 010c d33d 737f e43c
00000370: d039 9bbd 145b 3bbc 9692 8fbd f316 ce3c
00000380: 3f19 953c f3df fa3d 1c43 513e d2d5 e6bd
00000390: 78d9 bd3d e403 a93d de0f da3b 54fd 91be
000003a0: 2afc 33be c4a1 a73d 9114 033e 9226 a23d
000003b0: 49c0 debb 3899 19be 3c52 5fbd 80c0 5bbd
000003c0: 4c9e 583b cb58 f43b 6d5c 8f3d ce6a 4cbd
000003d0: 74e1 5e3d a433 d83d 4759 f6bd 050f 89ba
000003e0: 44e6 ddbd 9f4a 953d 703e 143e a018 a43c
000003f0: 8262 a83d 3355 e23d bac5 953d 10c6 2fbe
-0.076130815 -0.11911973 -0.071319416 0.018732456 0.09111923 -0.07257232 0.051772 0.073079556
-0.06988945 0.035620734 0.017113782 -0.09382874 -0.0011750857 -0.09234265 0.15621601 0.046311073
0.123885304 0.12635037 0.15915044 0.18964244 0.11978579 -0.10158388 0.17718928 0.092040144
-0.06386892 -0.0369768 0.10248102 0.06986599 0.20061807 0.010838374 0.20072046 -0.1243612
0.02680824 0.03409976 -0.0120542 0.16284648 0.08451232 0.05210996 0.12168972 0.0015876682
-0.031205185 -0.14945477 -0.06980165 -0.03178052 0.10526546 0.12521428 -0.09391748 -0.045117877
0.21999593 -0.044417765 0.20589007 0.12858932 0.00041057993 -0.063532256 0.11168647 0.099343225
0.14294975 0.046812735 0.09557282 -0.2257921 0.0711585 0.008366419 0.14067495 -0.049181234
-0.06833686 -0.09805549 -0.12903044 0.05211544 0.008518327 0.08113044 -0.0010319421 -0.010289443
-0.0006970862 0.081369616 -0.16372555 0.03351336 0.1460535 0.15107818 -0.06447813 0.15833642
-0.03568274 0.080618024 0.13575664 -0.0036175607 0.06774765 -0.10530887 -0.046641342 -0.057141546
-0.15585345 -0.021033112 0.05103371 -0.02617739 0.16967526 -0.09150038 0.058194987 0.099723
0.19939966 -0.031129438 -0.105136156 -0.030651271 0.104656845 -0.0032086105 0.1437916 -0.09953108
-0.07103914 0.08353637 0.061558794 -0.11242324 0.15909964 -0.013393308 -0.1962583 0.058833838
-0.06410379 -0.10326102 -0.15588069 0.031437825 0.06018089 0.1255679 -0.103274934 -0.0896608
0.16610307 -0.052455187 -0.07182162 -0.02494833 -0.20255442 -0.16489981 0.1722095 0.0237992
0.039826293 0.051102106 0.10266235 0.09161639 0.095347874 0.068579346 0.095568225 0.13306041
-0.049236502 -0.0013454383 -0.042018063 -0.14238697 0.15721408 -0.10665138 -0.006302858 -0.15043905
-0.16023923 0.018296842 0.0694607 -0.2691721 0.058715362 -0.11362182 0.008582218 0.09645042
0.012852987 -0.1990054 0.09303856 -0.15227959 -0.12766829 -0.091500066 0.11110029 0.08252451
-0.029878667 0.04816797 0.13008006 0.061609138 -0.17840599 0.007118226 0.13188435 0.11964604
-0.041076984 0.12962419 0.017784579 0.011396108 0.102604784 0.009912002 -0.08290868 0.009437906
0.15523465 0.081099264 -0.159346 0.060035314 0.002095605 -0.1293333 -0.15133043 -0.09477197
0.013908116 0.1211515 -0.061679795 0.08638021 -0.0180468 0.018779969 0.06738118 -0.10981144
0.052960586 0.022791687 0.08284521 0.014462971 -0.06930248 -0.09390613 -0.013685787 0.04993318
0.17289805 -0.07277292 -0.0035327128 0.11160767 -0.26159647 0.06336946 0.08091069 -0.18602106
0.010422455 -0.22375858 -0.020452907 -0.17805476 0.18678212 0.025498541 0.10074204 -0.21198024
-0.04307253 0.029404858 0.10305024 0.027892804 -0.07579386 -0.011435289 -0.07010381 0.025157427
0.018200515 0.12249746 0.20435756 -0.11271252 0.092699945 0.08252695 0.0066547235 -0.28513587
-0.17576662 0.08185151 0.12800814 0.07917513 -0.0067978245 -0.14999855 -0.054521784 -0.05365038
0.0033053337 0.007456874 0.07000051 -0.049906544 0.054414228 0.10556725 -0.12028747 -0.0010456747
-0.10834935 0.072896235 0.14476943 0.020031273 0.08221914 0.11051407 0.07313104 -0.17165399

conv1.bias f4 [128]
00000000: 28b1 7abd e4cc 49bb a719 bc3b d68a 6d3c
00000010: b54b 233c c493 333d 0d4e abbc 3292 083d
00000020: be98 c53b 0de6 d13c f8e2 89bc 61e9 6e3b
00000030: 4abe 753c 6113 6abc 88b6 da3b 3925 063c
00000040: 8ce9 cabc 1290 b03c 4211 b6bb 09db cabb
00000050: 6933 c1bc 4eb8 29bb 5491 fabb 1cb3 2d3b
00000060: d473 7d3d c19a 07bd abab 40bb 9543 863b
00000070: 389e 04bd b4a3 433b 6c26 efbc 9602 77bc
00000080: 16b0 a53c a85a dabc b0bf bcbc 931d 023d
00000090: ce15 a5bc 845b 3d3c c794 83bc b6f1 1fbd
000000a0: 3716 5b3c d5fa 8bbb da7b e23c 638d df3c
000000b0: f21c 9b3c 4ff2 89bc 72f2 ecbb 79dc e73c
000000c0: 4a52 e5bc 5cbe d8bc 93c7 ac3c 488a bb3a
000000d0: 89ea d0bc a0f9 24bc 9b86 5fbd db5b e4bc
000000e0: be22 a5bc 2c86 68ba 1766 98bb c0f5 893c
000000f0: f149 45bd 321a fcb9 3b83 183a 708d e6bc
00000100: a2d4 383d 16ee adbc 033b ee3b 2e08 32bc
00000110: 24be 4f3a e2d3 eb3b 8300 c53d d4a6 efbc
00000120: e723 243d e679 223d 22ff 0d3c 64ef f5ba
00000130: f89b 9cbb 6f49 bfbc 0fc6 6bbc 235f 20bd
00000140: 3061 84bd 8c71 8bba d8bb debc 3b56 62bc
00000150: 1718 0abb b773 223d 9c40 0fbc 3ee1 5ebc
00000160: 95e7 ac3c f426 eabc 6ad7 0d3d 518f 423d
00000170: 1425 b9bc ee44 463d 87e0 3e3c c92a 4dbc
00000180: 650e 9fbc 8c0c 91bd 67d4 41bc fced f0bc
00000190: 14c9 ba3c afe9 823d 4ba9 f93c ab13 07bd
000001a0: 8dc4 ac3b cb08 2a3c 743c 9dbc 5cae 91bb
000001b0: 49c2 e8bc 7208 7cbd a4fc 493b 9105 1dbc
000001c0: 1c1b ddbc e6ee adbc 3b99 0e3d 1e76 b83c
000001d0: ff5c 2d3d 4d95 f3bc 9406 043d 3b1a bfbc
000001e0: c398 0fbd 087e f1bb 4761 4cbd 0a0b 233d
000001f0: 52f9 07bd 6c55 153d 9bb4 82bb 8dba ca3c
-0.061204106 -0.003079229 0.0057403627 0.014498433 0.00996678 0.043842092 -0.020911241 0.033342548
0.006030171 0.025622392 -0.01683186 0.0036455023 0.014998982 -0.014286847 0.0066745915 0.0081875855
-0.024769567 0.021553073 -0.0055562565 -0.006190662 -0.023584085 -0.0025897208 -0.007646719 0.0026504463
0.06187804 -0.03310657 -0.0029399197 0.004097412 -0.03237745 0.0029852213 -0.029193126 -0.0150763
0.020225566 -0.026654556 -0.023040622 0.031766485 -0.020151999 0.011557464 -0.016062154 -0.039048873
0.013371996 -0.004271845 0.027646948 0.027289098 0.0189347 -0.016839175 -0.00723105 0.028303372
-0.02799334 -0.026457958 0.021091258 0.0014308179 -0.02550246 -0.010069281 -0.05457173 -0.027875831
-0.020158168 -0.0008870091 -0.004650842 0.016840816 -0.04816622 -0.00048084703 0.00058178947 -0.028143615
0.045124657 -0.021231692 0.0072702183 -0.010866208 0.00079247565 0.0071968893 0.09619238 -0.029254355
0.0400733 0.039667033 0.008666785 -0.001876336 -0.004779335 -0.023350446 -0.014390483 -0.03915323
-0.064638495 -0.0010638698 -0.02718918 -0.013814504 -0.0021071488 0.039661136 -0.008743431 -0.013603507
0.02110652 -0.028583027 0.034629263 0.04749996 -0.022600688 0.04840558 0.011650211 -0.012522408
-0.019416044 -0.07082471 -0.011830426 -0.029410355 0.02280096 0.06392228 0.030476233 -0.03297774
0.005272454 0.010378073 -0.019193865 -0.004445834 -0.028412955 -0.06153149 0.0030820752 -0.009583847
-0.026990466 -0.02123208 0.0348141 0.02251726 0.042325016 -0.029734278 0.032232836 -0.023327937
-0.035057794 -0.0073697604 -0.04989746 0.03980545 -0.033196755 0.036458418 -0.003988815 0.024747157

conv2.weight f4 [2, 128, 128]
00000000: 1115 66bd 9a19 58bd bac1 efbc 94c5 c83d
00000010: d98a 693d 0cd3 aa3d e3b3 eebc 334b 963d
00000020: 9f18 dfbc 8e92 90ba d478 d6bd 4de4 473c
00000030: 8902 573d ffe0 a7bc 5a84 d03d d5b0 cc3c
00000040: 8fb3 053e ef9d 2bbd ab76 e83b 3eff 37bd
00000050: 22ea f63d 352b 5bbd dee0 9e3d e0d2 bfbd
00000060: 9668 d93d ae4f e1bd 7023 8abd e15a 46bc
00000070: c836 a7bc 6337 a73c b5c7 a43c 66e1 ec3d
00000080: 1d6b ac3d 0faa 5fbd e160 083e 1730 ac3c
00000090: 981b 8fbd 0317 2a3d 5014 be3c 6111 083e
000000a0: 7370 b23c 9a8e 5a3d 7274 6cbc c2da aebd
000000b0: af0a f33c 76ca 1cbd e418 17bd 4379 59bd
000000c0: 8403 74bd 6a48 3c3d 1980 b33d 1f7b 0ebe
000000d0: 5db4 893d 22ce 94bd f3a6 c6bd d72c 6e3d
000000e0: dc5c 203b 20f5 36bd f659 813d 7fac ef3a
000000f0: 6e4a 8bbd 8ce8 033d 90d2 773c 727b c2bc
00000100: f1ff 42bd bbe4 6bbc 0056 993d 106f 89bd
00000110: 1397 213d 12ac 55bd 918f 44bd 02e9 07bd
00000120: 243b 5ebd 0e0d 323d d7fc 45bd 6981 ba3d
00000130: b7c3 7e3d fa5f a7bc 8dc1 7bbd d037 24bd
00000140: 980f d63c cd81 7e3d 5447 d7bc ed45 64bd
00000150: 5bdc 87bd 93f6 a4bd a676 7cbc cb4c 90bd
00000160: 6bc6 a63d a842 e13c 1803 41bd 3da3 0e3d
00000170: 99b9 0c3d 8764 e1bc ca08 2a3d 7fd1 8abd
00000180: e4bd 76bd 22b9 afbd d086 22bd efa3 68bc
00000190: 1d47 1b3d 2123 8c3c 4dce ebbd 68bf f7bd
000001a0: 6a25 62bb 38f0 9b3d b60e de3c 13e0 ac3d
000001b0: 2882 33bd 20c8 8e3d 6bc4 ddbd df0e 143d
000001c0: e680 68ba a7e9 c4bb 9fb6 6fbd f7b5 b7bd
000001d0: b57b 96bb bc17 293a affb 89bd b1e0 803d
000001e0: 4da8 9a3b cf2d 343d 4a17 a9bd 2e04 583d
000001f0: cccc 3cbd a7ef 90bd 5c31 12bd c368 d9bd
00000200: 467a 0abd c129 643c 00b3 f93c 9111 2bbd
00000210: e66b a13a 2ef1 bfbc 622d 373d 2927 043c
00000220: 374a 793b 3933 67bd da33 3abb 11e0 29bb
00000230: 85db 66bd a1b5 933a 49e4 443c 19b8 46bc
00000240: 764b 073d 7d62 ea3c c8ed c83b d7d2 143a
00000250: 805c dbbc 10c7 5cbd 6b6d e8bc 25ba 793d
00000260: 9211 d1bb 4287 bb3d cb32 5a3b f9ca 1c3a
00000270: c7fd f93c 92c5 20bd a422 abbc 55e9 cb3c
00000280: f3a9 dfbc 6eb8 3b3d d077 8a3c 2848 303d
00000290: 820c 8eba c61b fb3b b36e 19bd 0e02 c3bc
000002a0: 5405 e8bb de7a 413a 64a5 c3bc 62df d4bc
000002b0: 1e62 f3ba 2847 833d 571c bc3c 6724 cf3c
000002c0: c501 1abc bd63 03bd 839a b33c ecd5 b53d
000002d0: aef0 03bc dd5a a73c 277d 30bb 7ac6 403d
000002e0: f5c1 19bd f3d4 73bd f67b 21bd 3451 7bbb
000002f0: dd10 073d f3f3 b3bc 4d0c 533d 259e 863c
00000300: 7cf7 703c 70a2 2fbb 5986 30bd 39dc 173c
00000310: 5b20 983a e721 413b 2800 70bd 446a e4bc
00000320: 1419 0f3c 4700 02bd 0352 1e3d 2f0a 7ebc
00000330: cafa da36 5545 7f3b fb1e 583c 751e 41bd
00000340: 448c 6e3c 0b96 d3bc 54b5 a4bb 10ca a73b
00000350: 19fd d53b 1489 103d 0f51 fd39 8f83 033d
00000360: f9d7 2f3c 6e0d 0a3c e162 853c fb28 90bc
00000370: f2b7 5fbd 383c 1e3c 3310 6f3c 3e97 773b
00000380: 2301 1c3c 0db4 893d fca2 9ebb bc31 82bb
00000390: 0af6 77bc 0524 ba3b 7c10 80bb 4b83 0bbd
000003a0: b711 fabb 0335 b2bb 4e13 67bb ffb4 62bb
000003b0: fc62 7f3d ff71 2c3d fa45 88bd 6ea6 cdbb
000003c0: 2e0a 843d 11c6 bd3b 7b9e 563c e1d2 023d
000003d0: 714d 283a d918 0cbd f923 23bb e3ae 05bd
000003e0: 0158 0d3d e3cb d8bc a67b 14bc b7eb 51bc
000003f0: d58e a33c a3a8 9bbc 7431 41ba 50a5 053b
-0.056172434 -0.05275879 -0.02926718 0.0980331 0.05701718 0.08341035 -0.029138511 0.07338562
-0.02723342 -0.0011030005 -0.10472265 0.012200427 0.052492652 -0.020493029 0.10181494 0.024986664
0.13056777 -0.041898664 0.0070942244 -0.044921152 0.12056376 -0.053508002 0.07757734 -0.09366393
0.10615651 -0.11001526 -0.067450404 -0.012106628 -0.020411864 0.020412153 0.020114759 0.11566429
0.08418868 -0.05460554 0.13318206 0.021019025 -0.06987685 0.041525852 0.023203045 0.1328788
0.021782136 0.05335865 -0.01443206 -0.085378185 0.02966818 -0.03827902 -0.036888972 -0.05309416
-0.059573665 0.045967497 0.08764667 -0.13914154 0.06723855 -0.07265879 -0.09699812 0.05814823
0.002446941 -0.044667363 0.06315987 0.0018285661 -0.06801306 0.032204196 0.015125886 -0.023740504
-0.047607366 -0.014397795 0.07487106 -0.067106366 0.039450716 -0.052166052 -0.047988478 -0.033181198
-0.05425562 0.04346948 -0.04833683 0.09106714 0.062198367 -0.020431507 -0.06146388 -0.04009229
0.026130483 0.062135506 -0.02627913 -0.05573075 -0.06633826 -0.08054843 -0.015409147 -0.07045897
0.08143314 0.027497604 -0.04712209 0.034823645 0.034356687 -0.027513755 0.04151229 -0.067782395
-0.060239688 -0.08580233 -0.03967935 -0.014199241 0.037909616 0.017106595 -0.11513958 -0.12097055
-0.0034507164 0.076141775 0.027106624 0.08441176 -0.0438253 0.069717646 -0.108284794 0.036146995
-0.0008869305 -0.006009299 -0.05852377 -0.08970254 -0.0045923837 0.0006450375 -0.06737458 0.062928565
0.00471977 0.043989 -0.08256395 0.05273836 -0.046093747 -0.0707696 -0.035691604 -0.10615685
-0.033808015 0.0139259705 0.030480862 -0.0417648 0.0012315481 -0.023430433 0.044721015 0.008065977
0.003803862 -0.056445334 -0.0028412254 -0.0025920908 -0.056361694 0.001126934 0.012017318 -0.012128853
0.03303095 0.028611416 0.0061318614 0.00056771695 -0.026777506 -0.05390078 -0.028372487 0.060968537
-0.0063802684 0.09156658 0.0033294435 0.0005981173 0.030516518 -0.039250918 -0.020890541 0.024891535
-0.027302718 0.045830183 0.016902834 0.043037564 -0.0010837468 0.007663223 -0.037459087 -0.02380469
-0.0070807133 0.00073806744 -0.023882575 -0.025985423 -0.001856867 0.06410056 0.022962732 0.025285913
-0.009399836 -0.03207754 0.021924263 0.08878693 -0.008052988 0.02042907 -0.0026930065 0.047064282
-0.037538487 -0.059529256 -0.03942486 -0.0038347961 0.032975066 -0.02196691 0.051525403 0.016432831
0.014707442 -0.00267997 -0.043096874 0.009268814 0.0011606322 0.002946967 -0.0585939 -0.027882703
0.008734006 -0.031738546 0.03865243 -0.015505358 6.526102e-06 0.0038951237 0.01319098 -0.047148187
0.014559809 -0.025828382 -0.005026499 0.0051205233 0.0065304157 0.035286978 0.00048316314 0.032107886
0.010732644 0.008426053 0.0162825 -0.017597666 -0.054618783 0.009657912 0.014591265 0.0037779356
0.009521755 0.06723795 -0.0048412066 -0.003973214 -0.015134344 0.0056805634 -0.003908215 -0.034060758
-0.0076315063 -0.0054384484 -0.003525931 -0.0034592745 0.06235026 0.042100903 -0.06653972 -0.0062759435
0.06447254 0.0057914336 0.013099308 0.03193939 0.0006420231 -0.034203384 -0.0024893268 -0.032637488
0.034507755 -0.026464408 -0.009062683 -0.012812546 0.019965569 -0.01900131 -0.0007369735 0.0020392723

conv2.root f4 [128, 128]
00000000: 37e1 a53d 14b5 f4bb 6661 8bbb 1dcf adbd
00000010: eb70 cfbc a8f2 4bbb 4827 723d b3d0 bd3d
00000020: 6e9a 70bd cc8f c2bd f9c9 633c 94fe 043e
00000030: caef 0a3e 7f02 5c3d b120 593d 2ff1 c2bc
00000040: 6f79 b23d c05e 9e3d 7c75 e53d 1d99 6fbd
00000050: 5f69 0bbe 4cdf 893d bcf9 793d b2da 11be
00000060: ac56 aebd 69c6 e03d 2fce 1a3d 7cd5 103d
00000070: 7062 a1bd c29d a6bc 1208 a23c 6cc6 ccbd
00000080: 6383 00be 0e10 ad3d dd33 0d3e 7f0d 0e3e
00000090: 7b65 fabd 79cb 34bd f7f2 bebc f678 86bd
000000a0: 7ae2 a0bd 45a6 37bd 2797 28bd 92f3 a33d
000000b0: ff96 393c 9c01 d53d c99a ac3d 8f61 b7bd
000000c0: 3bd7 6f3d 00d8 bd3d 21b1 c5bd 6ec4 de3d
000000d0: 684e 15bc f9e6 11be 4f7b 2f3d 3ae3 5e3d
000000e0: d5f7 073e 1088 d33d bafe f9bc 663d a0bb
000000f0: ba85 563d 9e01 233d e19b cd3b 4ff5 acbd
00000100: ef63 ee3d 3055 063d 37e3 a53d 2402 653d
00000110: 47e5 ee3c 4138 023c d8f1 21be ce6a 7d3d
00000120: f1f3 b63d fdac 4bbd db68 1d3d 1250 25be
00000130: 0ec1 7d3d d705 223d 3f0b 5cbd 3c91 8d3d
00000140: 149e 033d 0aa4 5c3d 2a4f f63d 18d2 5fbd
00000150: 9752 bf3d b6fb 8bbc f632 64bc e8a9 8abd
00000160: f2c3 8c3d 3a8d 78bd bd16 ae3d e611 633d
00000170: f512 393d 785f 90bd c700 843c 9609 13bd
00000180: e85c 803d c093 a33c 773a 05bd 216a eebc
00000190: 3b6d 13bc 8ee4 48bd 7a39 f8bd 90eb 0cbe
000001a0: 0ae0 cb3c 92cd a13d 855b d33d ac21 263c
000001b0: 15dc ee3d 0652 c8bc 1a1e 043e 5d31 8bbd
000001c0: 448c ca3d 9416 d6bd d6f6 483d e705 4cbc
000001d0: 38c5 c93d fe10 1bbc 2a78 eabd 1cd9 e73d
000001e0: 98e8 bbbd 2c83 b6bd ca5b b23d 9470 083e
000001f0: bb88 4e3d 8110 a13d b2b2 e43c 84f9 5fbd
00000200: 4c4a b43c 0b2a a3bb 03d2 bf3c b982 2ebc
00000210: 2540 c0bc 42f0 62bc eb73 ddbb 501a 7abc
00000220: 2341 e33b 0344 823d bcbf bfbc 2ab5 17bc
00000230: 749b 80bb 9d70 003d e0ba 6bbd de6b 303c
00000240: b6bf 78bc 9b4a 7e3d 3f5e 9ebd 78d6 5c3c
00000250: 1192 813d a518 a1bc c0a7 5f3d 1681 bfbd
00000260: 5cb1 c63d de52 30bd 57b3 7fbd d828 413d
00000270: 373a 493c 127a 4c3b 204e a0bc e479 2d3d
00000280: 1812 a9bd 84cd 8fbd 5b67 af3b 8328 d1bc
00000290: 3899 6cbb a9c1 9a3c bcdc 5cbc b5de 833c
000002a0: f2d1 073d 3870 1d3c 3134 61b9 d416 95bd
000002b0: 0820 2f3d b95e 073d 3775 d23c f070 553d
000002c0: 171c 1fba 3b06 0abc 853b 9d3d e10c a33d
000002d0: 3c41 a63d f676 873c 197d 193d 617a 1f3d
000002e0: 156a acbd 729b 153d cd3e f3bc d31a 96bd
000002f0: 82ef 823d 2754 aabc 3b4b 7abd b41f 313d
00000300: 6377 983c b0b3 21bc 0d0b 31bc 11bd 033d
00000310: a69e cc3c 2eff 2c3b 2a13 85bd 5b23 2e3d
00000320: 2d2d c1bc fdb2 9b3d 1553 3abc a3a6 2cbd
00000330: e62e c83c 744a 5bbd 0415 10bd 0b75 e8bc
00000340: a767 7cbc 3896 373d 392e 0f3d a2ec d3ba
00000350: 604f a63d e0ed 973d 6813 d73c ad01 903c
00000360: 51a0 473d 5b7a 173d 99e0 9b39 f47a dcba
00000370: 76f3 8fbd f33b a73c 2d97 6ebc 9be1 62bc
00000380: 34ca 22bd fec8 3fbd 8220 8cbb 2712 95bb
00000390: 4192 66bd 0e77 adbc 2621 d3bc 26c3 683b
000003a0: 6b5c a1bc a4c3 0ebb 512e b2bc 3a55 ddbb
000003b0: e39a 8e3d 0c6c 17bb 441b 41bd 7430 7e3c
000003c0: f263 f03c 8f28 0bbd 16db 7c3c b168 0dbd
000003d0: 6b45 bb3c 80e1 4e3d 5b25 933d 2daa f7bc
000003e0: dabb 553a d1f9 44bc 706d 81b9 d039 503d
000003f0: 5de0 bd3b 3318 dbbc eb19 183c d091 3a3d
0.08099597 -0.0074678753 -0.004253554 -0.08486769 -0.025322398 -0.0031119976 0.059119493 0.09268322
-0.058741026 -0.09500083 0.0139031345 0.12987739 0.13568035 0.053713318 0.053009693 -0.023796646
0.08714568 0.07732916 0.11204049 -0.05849563 -0.13614415 0.067320436 0.06102918 -0.14243582
-0.08512625 0.10975344 0.03779429 0.035359845 -0.078801036 -0.020338897 0.019779239 -0.099987835
-0.1255012 0.08450328 0.13789316 0.13872336 -0.12226387 -0.04413936 -0.023309214 -0.0656604
-0.07855697 -0.0448363 -0.041159775 0.08005442 0.011327504 0.104006976 0.084279604 -0.08954155
0.05855487 0.09269714 -0.09652925 0.1087731 -0.009112932 -0.14248265 0.042842206 0.05441592
0.13278134 0.10328686 -0.03051697 -0.0048901318 0.052373625 0.039796464 0.0062746857 -0.084452264
0.116401546 0.032796085 0.080999784 0.055910245 0.029162062 0.007947982 -0.15814912 0.061869435
0.08933247 -0.04972552 0.038430076 -0.16143826 0.06195169 0.03955635 -0.053721663 0.06912467
0.032133177 0.053867377 0.12026818 -0.05464372 0.09341925 -0.017087799 -0.013928166 -0.06770688
0.06873311 -0.06068156 0.08500431 0.05543699 0.045184094 -0.07049459 0.016113652 -0.035897814
0.062677205 0.019967914 -0.03252646 -0.02910334 -0.008998211 -0.04904609 -0.12120338 -0.13761735
0.024887104 0.079005376 0.1032019 0.010139864 0.11663071 -0.024453174 0.12902108 -0.06796525
0.09890035 -0.10453525 0.049063526 -0.012452579 0.098520696 -0.0094645005 -0.11448701 0.11320707
-0.09175223 -0.08911738 0.087089136 0.13324195 0.050423365 0.07864476 0.02791724 -0.054681316
0.022008084 -0.004979377 0.023415571 -0.010651284 -0.023468086 -0.013851227 -0.0067582033 -0.015265062
0.006935255 0.063606285 -0.023406856 -0.0092595015 -0.0039247815 0.031357396 -0.057551265 0.010767905
-0.015182426 0.062082868 -0.0773282 0.013478868 0.06326688 -0.019665072 0.05460334 -0.09350793
0.09701797 -0.04304778 -0.06242689 0.047158092 0.012281946 0.003120069 -0.019568503 0.042352572
-0.08255404 -0.07021621 0.005352897 -0.025532013 -0.0036102068 0.018891172 -0.013480362 0.016097406
0.033159204 0.009609275 -0.00021477115 -0.07279745 0.042755157 0.03304932 0.025690658 0.05210966
-0.00060695544 -0.008424337 0.07677368 0.07961441 0.08117911 0.016536217 0.037472818 0.03893507
-0.08418671 0.036525197 -0.029693032 -0.07329335 0.06393339 -0.02079208 -0.0611069 0.043243125
0.018611616 -0.009869501 -0.010805857 0.03216273 0.024977993 0.0026397216 -0.06497796 0.042514186
-0.023581112 0.07602499 -0.011372347 -0.042151105 0.024436425 -0.0535378 -0.035176292 -0.028376123
-0.015405572 0.044820994 0.03495619 -0.0016168545 0.08120608 0.07418418 0.02625437 0.017578924
0.048736874 0.03698192 0.00029731242 -0.0016821311 -0.07028858 0.020414328 -0.01456241 -0.013847734
-0.039743617 -0.04682254 -0.004276336 -0.004549283 -0.056291822 -0.021174934 -0.025772642 0.0035516708
-0.019697389 -0.0021784091 -0.021750601 -0.0067545446 0.06963136 -0.0023105172 -0.047145143 0.015514482
0.029344533 -0.033974227 0.0154330935 -0.03452367 0.02286025 0.050508022 0.07184859 -0.030232513
0.0008153297 -0.0120224515 -0.00024686335 0.050836384 0.0057945685 -0.026744938 0.009283523 0.045549214

conv2.bias f4 [128]
00000000: 7790 4b3d f78e 06bd 247f cfb9 522b 03bc
00000010: 40b6 2cbc c8ce c6ba fe82 83bc ca8f 003d
00000020: 1d7d a03c 6674 81bb b9c0 d43c be88 9f3c
00000030: 9b8d 6c3d 31ba 5f3d 9342 6cb9 5e0f 693d
00000040: 0de6 24bc f6eb 5f3d 4761 8e3c 1f29 013c
00000050: dabf 6eba 53d1 683b 20fa 213b c08d 2a3c
00000060: c5b9 3ebb 9a4e 013c f791 0039 4dda 243d
00000070: 5f73 c13c 2049 e63c 37c1 62bb 34ea c9bb
00000080: 6f11 d13c c1f1 74bc bbe5 663d 7dab 9e3d
00000090: dfdd a8bb ba52 8abc 7f6f 983d fb1e 563b
000000a0: 81d2 363d a971 ccbb f774 87bc 2902 c13b
000000b0: dd7d f6bb a07e 783d b37f ea3c 01a2 18bc
000000c0: d5e0 f8ba 234c acbc 6c96 3bbb 99a9 c33c
000000d0: a64b e6ba 6f4c 7f3c ecc6 15bc 4b8d 463d
000000e0: 519f b73b cdbc 413d f96f 633d cabd f0bb
000000f0: 2855 d03c 378f 54bc a7b3 0b3c 94ff d4b9
00000100: b3b9 50bc d413 8fbc ac59 173d dd64 c53b
00000110: 9eeb a3bb b4fc d7bb 89de 853b f80a 51bc
00000120: 00ac 80bc 57b1 0a3c 9725 013c 8bcc 14bb
00000130: da82 933d 54b0 f0bc e1e9 d8bb 6edb 2abc
00000140: ac8b 803b cfc8 853d 9329 12bb 6f90 573d
00000150: 2fed 893c f07c da3c 9392 88bc c8c4 173c
00000160: 3808 3fbc 441a 3b3d b5d3 debc 697f 92bc
00000170: 09c8 ef3c c5d3 793d 7815 37bc 6ce6 36bc
00000180: 8a8f c1bc 88ef 61bb ecbc 52bc c03b 37bd
00000190: f47d 393d 4d6b 02bc 6968 94bc 7b39 b4bb
000001a0: 907b 9a3c 9e81 97bb 9f86 0ebc ca5c 03bb
000001b0: aad3 bc3c 9ecd 3c3d 2d4c 8f3b f754 c13b
000001c0: 5052 8ebc e9a7 b8ba a2a7 153d b2ca 143d
000001d0: a892 7c3d 15c9 463d 75b5 fe3c a989 163c
000001e0: 529c 663d f7a4 883d 502f 91bb 3eed 8e3d
000001f0: 8b7e 9cbc a586 963c aec2 0a3c 74b4 5fbb
0.04969832 -0.032851186 -0.00039576844 -0.008005934 -0.010541499 -0.0015167827 -0.016053673 0.031387128
0.019590909 -0.0039506434 0.025970804 0.019474383 0.057752233 0.054620925 -0.00022531515 0.05689942
-0.010064614 0.05466839 0.01738037 0.007883339 -0.00091075676 0.0035525158 0.0024715737 0.010409772
-0.0029102426 0.007892275 0.00012261407 0.04024725 0.023614584 0.02811104 -0.0034600028 -0.0061619524
0.025521008 -0.014950217 0.05637143 0.077475525 -0.005153402 -0.01688515 0.07443141 0.0032672274
0.044634346 -0.0062391353 -0.016535265 0.00589015 -0.0075223283 0.060667634 0.028625345 -0.0093159685
-0.0018987904 -0.021032399 -0.0028623594 0.023884581 -0.0017570152 0.015582188 -0.009141665 0.04847459
0.005603709 0.047299195 0.055526707 -0.0073468434 0.02543123 -0.012973598 0.008526719 -0.00040626212
-0.012739587 -0.01746551 0.036950752 0.0060239867 -0.005002453 -0.006591404 0.004085366 -0.012758963
-0.015707016 0.008465133 0.007882497 -0.0022704925 0.07202692 -0.029380955 -0.0066196774 -0.010428293
0.0039229 0.06532442 -0.0022302612 0.052627977 0.01683673 0.026670903 -0.016671455 0.009263225
-0.011659674 0.045679346 -0.02720056 -0.01788302 0.029270189 0.060992975 -0.011174552 -0.011163335
-0.023628015 -0.0034475047 -0.012862425 -0.044734716 0.045286134 -0.007960153 -0.018116193 -0.0055000163
0.018857747 -0.004623606 -0.008699088 -0.002004432 0.023050148 0.04609453 0.0043730945 0.005900021
-0.017373234 -0.0014088127 0.03653682 0.036326118 0.0616633 0.04853161 0.031092385 0.009188094
0.056301422 0.066720895 -0.004430689 0.06978844 -0.01910331 0.01837475 0.008469267 -0.0034134658

classifier.weight f4 [2, 128]
00000000: 6bae e2bd 8ae9 b73c 78f6 9bbc f232 8d3d
00000010: 315d cb3c 7e2a 57bc 3a30 8e3d e56c 93bc
00000020: 0a08 abbc e68b 7d3d ef12 efbd 55dc 0abd
00000030: ace1 efbd b415 07be 9d8f ed3d 90a5 b8bd
00000040: 0d75 9ebd a2b4 8fbd a14d adbc e621 04bd
00000050: 1f6e 173d d917 cc3d 8c09 83bd d206 123e
00000060: 9472 b03c 30f2 97bd 506b 41bc d1e0 f1bc
00000070: 8b91 8fbd c085 243c 4402 c63d 5d63 eabb
00000080: 4dae c0bd 80d9 f73d fe61 ccbc 85c5 dabd
00000090: e7e0 723d 5de3 cf3d 9e57 f2bd 594c b73d
000000a0: 792f 7abd 2009 4b3c 655f fa3d 5525 603d
000000b0: a36c 40bd c856 08be 2101 c93b 3db3 2fbd
000000c0: 9685 593d 4595 723c ddbb 29bc 284a 53bd
000000d0: 54a0 af3c 4282 363e b090 c7bc ec92 28be
000000e0: 3784 0d3e 09fd d3bd 0f70 a9bd 6f1c 09bc
000000f0: 6988 89bd 4606 f03d 45ca 123e 397d a4bd
00000100: f841 133d 7808 353d edc5 18bd 04c9 7fbd
00000110: ff9d 233c 7381 c53c beb0 cd3d 8b13 193e
00000120: be45 69bc d874 66bd 19d9 68bd 4234 e63d
00000130: 2d96 07be 1b54 0a3e b8bc 4a3d 5e45 963d
00000140: 4cc6 a5bd 207e f0bc bdbc 663d 3075 9bbd
00000150: 7a1c 14bd 7ee7 eabd 996c f63d d62e d93d
00000160: 0a96 803d 5a6e d6bd 75bc be3d ad6d 123d
00000170: d74f a1bd 92be d4bd 1b2e dd3d e52b 643d
00000180: 5cd1 0a3e 3b5e 6a3c f53b d63d 21eb 593d
00000190: 7072 ebbd 8442 563d 682d 803d 0451 003e
000001a0: 79fb a639 6e5c 5abb de22 0c3c 4d9a 333d
000001b0: 54df 42bd 467f 40bd f315 7c3d 1e32 213d
000001c0: 43df 3b3d 44b0 263d de04 153c 2375 c6bd
000001d0: 9d97 00be fd98 ccbd 0ed5 bfbd 3015 533d
000001e0: cd75 07be 5786 78bd 63ba 913d baf1 45bd
000001f0: 7efb a23d 0ebe d33d b943 8fbd 14d2 1e3d
00000200: 0659 6f3d 30df 60bd 8f5d 86bd 3d73 1abe
00000210: 8747 3c3d 0c19 e8bd 4c3c b7bd f34d 423d
00000220: ff2f 6b3c f410 0abe 6959 da3d 3c1a 183d
00000230: 7660 043d 7f2d fabc 750d 2dbd cbee f5bb
00000240: c9f0 8d3c bfc0 ff3d 8ed3 9d3d 7078 193c
00000250: 5871 57bd ce42 77bd 1960 7e3d d55d 04be
00000260: 4be6 d0bc 982d c83d 87ac 173d 514c 413d
00000270: 169b 14bb fdfe c53d b7d3 72bc 7b6b 7a3d
00000280: 2eac ec3c 2b7d d2bd da02 113e 104d e73d
00000290: a033 4ebd 8ab2 45bd f6b6 b43c 024a fabd
000002a0: 1f0f 023e bf3d 523c a077 82bc 8ce2 16be
000002b0: 89e8 95bd c252 bf3c e813 ca3d f103 5d3d
000002c0: c87f 7e3d 7a04 0bbe 08b5 033d 8370 cd3d
000002d0: 53a0 733d 2a79 1abe e017 19bd 7c79 153e
000002e0: 0b30 e0bd 68ea 973d 0543 1bbc 8752 ea3c
000002f0: 9838 9b3d cff8 32bd be13 a2bd 425b 1fbd
00000300: 1773 59bb 51c7 14bd f90f 153e 37c7 ab3d
00000310: d7ed 0b3d 9f1b 043d 18c3 05be c05a 02be
00000320: e703 d7bd e288 753d 6b0e 573d 026c d9bd
00000330: 3627 bd3d 1b62 22be cd18 00be b17a 93bd
00000340: ad07 02bd 4867 733d 8f2e 9e3d 08ff ed3d
00000350: 4020 3e3d 9db5 ad3b d3dd 5cbd c74c ffbd
00000360: f4f2 3b3d 0f68 09bd 52d6 0f3d 3769 86bd
00000370: bd85 c33d 37bc ddbb c44a e13b 7119 c73c
00000380: cad3 ea3c 0799 b2bd 699d 01bd 789c 2bbd
00000390: 2a27 5f3d 19ba 5fbd 7abb a5bc cb90 26be
000003a0: 5437 103d 99ee 1cbc 96f5 1bbd 7a5b 063d
000003b0: b2e0 1f3d b12f d03d 5fd8 00bd 34c7 e6bd
000003c0: 2eaa 9ebd 6997 84bd d698 003e 38bb fd3c
000003d0: ee72 3c3d 29ae 363d 15c6 6e3d 7e8e 82bd
000003e0: d792 d8bb 9a13 e43d ed37 1abc 3415 e03d
000003f0: 32d6 99bd 619d 03be b984 29bd bc8a f6bd
-0.11068424 0.022450227 -0.019038424 0.06894483 0.02482471 -0.0131326895 0.06942792 -0.01799626
-0.020877857 0.061900996 -0.11673533 -0.03390153 -0.11712965 -0.13191873 0.11599658 -0.090159535
-0.077371694 -0.07016875 -0.02115518 -0.03225889 0.036970254 0.09965486 -0.06398305 0.14260414
0.02153901 -0.074192405 -0.01180537 -0.029526146 -0.07010182 0.010041654 0.09668401 -0.0071529583
-0.09408245 0.12102032 -0.02494907 -0.10682205 0.059296515 0.10150788 -0.11833118 0.08950109
-0.06108043 0.012392312 0.12225226 0.054723103 -0.046978604 -0.13314354 0.006134168 -0.042895544
0.053105913 0.014806096 -0.0103597315 -0.051584393 0.021438755 0.17823127 -0.024360985 -0.16462296
0.13819967 -0.10350997 -0.082733266 -0.0083685955 -0.06715471 0.117199466 0.14334972 -0.08031697
0.035951585 0.04419753 -0.03729813 -0.062447563 0.0099864 0.024109578 0.100434765 0.14948861
-0.014237819 -0.056263775 -0.056847665 0.11240436 -0.13240881 0.13508646 0.049496382 0.073374495
-0.08094463 -0.029357016 0.05633234 -0.07590711 -0.03615997 -0.11469935 0.12032432 0.10604636
0.06278618 -0.10470267 0.09313289 0.035749126 -0.07876556 -0.10387911 0.107998095 0.055705924
0.13556427 0.014304693 0.10460655 0.053202752 -0.114964366 0.052309528 0.062586606 0.12530905
0.0003184935 -0.0033319253 0.008553235 0.043848325 -0.047576264 -0.046996377 0.06154437 0.039354436
0.045867216 0.040695444 0.009095399 -0.09690311 -0.12557836 -0.09990118 -0.09366809 0.051533878
-0.13228531 -0.06067499 0.071156286 -0.04832623 0.079581246 0.103389844 -0.06995339 0.038774565
0.05843451 -0.05490035 -0.06560814 -0.15083022 0.04596665 -0.11332902 -0.089470476 0.04743762
0.014354705 -0.1348303 0.10661585 0.037134394 0.032318555 -0.030539272 -0.04224916 -0.007505273
0.01732673 0.12487935 0.077063665 0.009367093 -0.052598327 -0.060366444 0.062103365 -0.12926419
-0.025500437 0.09774321 0.03702977 0.04719192 -0.0022675446 0.09667776 -0.014820985 0.061137658
0.028890695 -0.1027778 0.14161244 0.112939954 -0.050342202 -0.04826597 0.022059899 -0.12221147
0.1270108 0.012832104 -0.015926182 -0.14734858 -0.07319743 0.023354892 0.09867078 0.053958837
0.06213358 -0.13575926 0.032155067 0.100312255 0.05947907 -0.15085283 -0.037376285 0.14597124
-0.109466635 0.07417756 -0.009476428 0.028603805 0.07579154 -0.043694314 -0.07913922 -0.03890539
-0.003318017 -0.036322895 0.14556874 0.083876066 0.03416237 0.032252904 -0.13062704 -0.12729931
-0.10498791 0.059944995 0.052503984 -0.10616304 0.092359945 -0.15857737 -0.12509461 -0.07201136
-0.0317456 0.05942467 0.07723724 0.11620909 0.046417475 0.005301191 -0.053922486 -0.12465816
0.045885995 -0.033546504 0.0351165 -0.06563037 0.09546993 -0.0067668217 0.006875368 0.024304124
0.028665442 -0.08720594 -0.03164426 -0.041897267 0.05448071 -0.054620836 -0.020230997 -0.16266172
0.035209015 -0.0095783705 -0.038076006 0.032802083 0.039032646 0.101653464 -0.031456348 -0.11268464
-0.07747303 -0.06474192 0.12558302 0.030973062 0.046008043 0.044599686 0.058294374 -0.063748345
-0.0066093015 0.11136551 -0.009412748 0.10941544 -0.07511558 -0.12853004 -0.04138634 -0.1203818

classifier.bias f4 [2]
00000000: bb3f 5cbd 32a6 573c
-0.053771716 0.013162183
