graph/checkpoints/best_gat.pt (torch, 316117 bytes, 10 tensors)

conv1.att_src f4 [1, 4, 128]
0	0x3e053d19	0.13011588
1	0xbdd261a2	-0.10272528
2	0x3df10ac0	0.117696285
3	0xbd3fc4e6	-0.046818636
4	0x3df46da1	0.119349726
5	0xbe504cde	-0.20341823
6	0x3cf710fe	0.03015947
7	0x3d9a3f92	0.07531656
8	0xbe2d52b0	-0.16926074
9	0x3d1317ff	0.035911556
10	0x3b0672fa	0.0020515309
11	0xbe43b685	-0.19112594
12	0x3dee7059	0.11642522
13	0xbe15179b	-0.14559786
14	0x3cdbddd7	0.02683918
15	0xbd2b577c	-0.04183148
16	0x3e0af54c	0.13570136
17	0x3d238da3	0.039929997
18	0xbe59cf5b	-0.21270506
19	0xbdce37ae	-0.10069214
20	0x3da5dc4c	0.08098659
21	0x3cdaa7ca	0.026691336
22	0x3e24c774	0.1609171
23	0xbdeb67f9	-0.114944406
24	0xbdbbc57d	-0.09168527
25	0xbe46c1dd	-0.1940989
26	0xbe19e5f1	-0.15029122
27	0xbd355875	-0.044273812
28	0xbdf40165	-0.119143285
29	0x3d599055	0.05311616
30	0xbe3632e1	-0.17792846
31	0xbe1fdbdb	-0.15611212
32	0x3d3b6a65	0.045755763
33	0x3dbd4ed7	0.09243553
34	0xbcd9fc36	-0.026609521
35	0xbdbea8f1	-0.09309567
36	0x3c6c3c88	0.014418729
37	0x3d8a8b03	0.06764796
38	0x3cbc4a9e	0.022984799
39	0xbc64e961	-0.0139716575
40	0x3d6fdc4a	0.058559693
41	0x3e3432c4	0.1759749
42	0xbdc40e15	-0.095729984
43	0x3e23f791	0.16012408
44	0xbdca8cef	-0.09890162
45	0x3c64100f	0.013919844
46	0xbe240969	-0.16019215
47	0xbe080eb3	-0.13286857
48	0x3d888b82	0.06667234
49	0xbd0f94b7	-0.035053935
50	0xbd471596	-0.04860457
51	0xbdf630f2	-0.12021054
52	0xbc258aab	-0.010103862
53	0x3d46fb87	0.04857972
54	0x3da5b49a	0.08091088
55	0x3df2f496	0.11863057
56	0x3b861342	0.004091651
57	0xbc9e9f61	-0.019363107
58	0xbcb2e4bb	-0.021837583
59	0xbe3fd4b0	-0.18733478
60	0x3cde67b4	0.027149059
61	0xbd30f2cc	-0.0432003
62	0x3e0c5045	0.13702495
63	0xbc932f76	-0.017966967
64	0x3dfddcea	0.12395652
65	0xbd9fc1a6	-0.078006074
66	0x3ccccb50	0.02499929
67	0xbd1040ed	-0.035218168
68	0xbddfe69a	-0.10932656
69	0xbcc3e538	-0.023913011
70	0x3dd4591d	0.103685595
71	0xbd1ff5c5	-0.039052743
72	0xbd2100e9	-0.03930751
73	0xbc0ca8d1	-0.008585171
74	0x3d142101	0.036164287
75	0xbcba149b	-0.022714904
76	0xbdaad2d3	-0.08340993
77	0x3d52b923	0.05144609
78	0xbe1ec695	-0.1550544
79	0x3d2cc515	0.04218014
80	0x3e3c3712	0.18380383
81	0xbdd9ebe8	-0.10640699
82	0x3e2d5bc5	0.16929539
83	0x3cca2d26	0.024679732
84	0x3d351228	0.04420677
85	0x3d891759	0.06693906
86	0xbe058d6f	-0.13042234
87	0x3d7842c6	0.060610555
88	0x3ddc0d63	0.10744741
89	0x3e314d88	0.17314732
90	0x3d547768	0.051871687
91	0x3df2f7f7	0.11863702
92	0xbd960d8c	-0.073268026
93	0x3e17fcdd	0.14842553
94	0xbd58a8b1	-0.05289525
95	0x3d135f84	0.035979763
96	0x3d19a3c1	0.037509684
97	0x3e3f1fb2	0.18664435
98	0x3e106d40	0.14104176
99	0xbdfcc68d	-0.12342558
100	0x3d9fc3f1	0.07801045
101	0xbdceac85	-0.10091499
102	0x3db03681	0.08604146
103	0xbe0abce9	-0.13548626
104	0xbe6e92ef	-0.23298238
105	0x3e11d934	0.14243013
106	0xbe0bed0f	-0.1366465
107	0x3b77c56b	0.003780688
108	0x3db86583	0.09003737
109	0xbd31396e	-0.04326766
110	0xbd311c46	-0.043239854
111	0xbb8d1a09	-0.004306082
112	0x3da26553	0.07929482
113	0xbdb65552	-0.08902992
114	0x3e026b2e	0.12736198
115	0xbcf82db2	-0.030295227
116	0x3c366136	0.011131575
117	0xbe04dc46	-0.12974653
118	0xbdee2bed	-0.11629472
119	0xbe24207d	-0.16028018
120	0xbe0ff44e	-0.14058039
121	0xbe00fb88	-0.12595952
122	0xbe17ee40	-0.14836979
123	0x3c9fc91c	0.019505076
124	0x3cbb8088	0.022888437
125	0xbd2fe774	-0.04294534
126	0xbdb68f69	-0.08914072
127	0x3d8d8c6e	0.069115505
128	0xbd44c034	-0.04803486
129	0x3de1088f	0.109879605
130	0xbdf4df5e	-0.119566664
131	0x3e27d555	0.16389973
132	0x3d718e10	0.058973372
133	0x3e802331	0.2502685
134	0xbe2a64b6	-0.1663998
135	0xbdac2300	-0.08405113
136	0x3cf40883	0.029789215
137	0xbe2a6cd1	-0.16643073
138	0xbe421b60	-0.18955755
139	0x3cae6898	0.021290109
140	0x3e57be06	0.21068582
141	0xbe37e21f	-0.17957352
142	0xbe599900	-0.21249771
143	0x3c9ccb64	0.019139953
144	0xbe416c14	-0.18888885
145	0xbdcd939a	-0.100379184
146	0x3d2476fd	0.04015254
147	0x3e164233	0.1467369
148	0xbd263239	-0.04057524
149	0x3d2d6168	0.042329222
150	0xbe20e747	-0.15713225
151	0xbd29a027	-0.0414125
152	0xbdd24a42	-0.1026807
153	0xbe85de04	-0.26145947
154	0xbe0034e5	-0.12520178
155	0x3e2252cd	0.15851898
156	0xbda319a6	-0.079638764
157	0xbe1adbb2	-0.1512287
158	0x3e55c408	0.20875561
159	0xbe2528cf	-0.16128848
160	0x3db29ba4	0.08721092
161	0x3e2957a5	0.1653734
162	0x3e2f0669	0.17092289
163	0x3e287bfe	0.1645355
164	0xbc95b207	-0.018273367
165	0xbe77d4dc	-0.24202293
166	0xbe1ba8e5	-0.15201147
167	0xbe007507	-0.12544642
168	0xbe73dffa	-0.23815909
169	0x3d4a27c8	0.049354345
170	0xbe670bfe	-0.22563168
171	0xbd691bf1	-0.056911413
172	0xbd820041	-0.06347705
173	0x3e0f2426	0.13978633
174	0x3e07f726	0.13277873
175	0x3e715cbf	0.23570536
176	0x3e337ed8	0.17528856
177	0x3e7ee16e	0.24890682
178	0xbdf789a5	-0.120868005
179	0xbe259f7a	-0.16174117
180	0xbe30704e	-0.17230341
181	0xbe349ad5	-0.17637189
182	0x3bd75d41	0.006572396
183	0xbc930595	-0.017946998
184	0x3e4c98b6	0.1998013
185	0x3d1d508e	0.0384069
186	0x3e01459d	0.12624212
187	0x3d3c59b1	0.045983974
188	0xbcfe7253	-0.031060373
189	0xbd1062d4	-0.0352505
190	0xbd048fd4	-0.032363728
191	0x3e16af8a	0.147154
192	0xbe704e01	-0.23467256
193	0xbda3ad8c	-0.07992086
194	0x3e06143c	0.13093656
195	0x3dcbf7aa	0.099593475
196	0xbcda1e1a	-0.026625682
197	0xbd661449	-0.05617169
198	0x3db1eccf	0.08687746
199	0xbd8e9364	-0.06961706
200	0xbddc5879	-0.10759062
201	0xbe0b5f4f	-0.13610576
202	0x3d41b136	0.047288142
203	0x3e37a89f	0.17935418
204	0xbbb62762	-0.005558894
205	0xbd93935c	-0.07205841
206	0xbe2f348e	-0.17109892
207	0xbdea9674	-0.11454478
208	0xbcf7f41e	-0.030267771
209	0x3e0b767d	0.13619418
210	0xbdcfd725	-0.101484574
211	0x3da91e43	0.08257725
212	0x3e56b02c	0.20965642
213	0xbe0d30e0	-0.13788176
214	0x3d98b7d1	0.07456935
215	0xbe54ee37	-0.20793997
216	0xbda82189	-0.08209521
217	0x3e6e2942	0.23257926
218	0x3dcf16f6	0.10111801
219	0xbe199ea0	-0.15001917
220	0xbddf6b4a	-0.10909136
221	0x3ddf7125	0.109102525
222	0x3d246d89	0.040143523
223	0x3dd31326	0.10306387
224	0xbdf29a30	-0.11845815
225	0x3dd840e9	0.10559256
226	0xbdfa3e83	-0.122189544
227	0xbda6055b	-0.0810649
228	0xbdc7aaf1	-0.09749401
229	0xbde1a758	-0.110182464
230	0xbd99f8c8	-0.075181544
231	0xbdeb7b4e	-0.11498128
232	0xbca81ffe	-0.020523068
233	0xbe2b0104	-0.16699606
234	0x3c86b40e	0.016443279
235	0x3d9604e4	0.073251516
236	0xbd117935	-0.035515983
237	0xbe3f22a9	-0.18665566
238	0x3b6b83b5	0.0035936658
239	0x3d656827	0.05600753
240	0xbe2d8b19	-0.16947593
241	0x3bf55244	0.0074866135
242	0x3acd1e38	0.0015649265
243	0x3d98a779	0.07453818
244	0xbe42dc8a	-0.19029441
245	0xbe2cb3b5	-0.16865428
246	0xbe684013	-0.22680692
247	0xbe4dfb84	-0.20115477
248	0x3db51308	0.088415205
249	0x3b67cb08	0.0035368819
250	0xbc951ac6	-0.018201243
251	0x3db0d36e	0.08634077
252	0xbc8a0bc4	-0.016851313
253	0x3d19be52	0.03753502
254	0x3d095bfe	0.033534996
255	0x3e19cf7e	0.15020558

conv1.att_dst f4 [1, 4, 128]
0	0xbe33e8c0	-0.17569256
1	0xbdecc4a0	-0.11560941
2	0xbe18d92d	-0.14926596
3	0x3dcef800	0.10105896
4	0x3e00aac1	0.12565137
5	0x3e882b07	0.26595327
6	0x3e87199b	0.26386723
7	0x3d27e22d	0.040987182
8	0x3d3b091e	0.04566299
9	0x3d183a28	0.037164837
10	0x3e5d5270	0.21613479
11	0x3e887780	0.2665367
12	0x3daa687f	0.08320712
13	0xbe59c57d	-0.21266742
14	0x3db6df7b	0.08929344
15	0x3e91dc59	0.28488424
16	0xbd7aafbd	-0.061202753
17	0x3dff8673	0.12476816
18	0x3e109297	0.1411842
19	0xbd0b69b4	-0.034036353
20	0x3e6917ab	0.22762935
21	0x3e120bda	0.14262334
22	0xbe01fc57	-0.12693916
23	0x3e4c481a	0.1994938
24	0xbd08f5b2	-0.03343744
25	0xbcf47178	-0.029839262
26	0xbcb12c34	-0.021627523
27	0x3e4e878f	0.20168899
28	0x3d47a521	0.048741464
29	0x3d48db3d	0.049037207
30	0xbe2839fa	-0.16428366
31	0x3d1618f3	0.036644887
32	0x3986b3f2	0.0002569254
33	0x3e8bd406	0.273102
34	0xbe7c6e47	-0.24651442
35	0x3c54345f	0.012951939
36	0xbdbd3c11	-0.092399724
37	0xbe4ba8f5	-0.1988867
38	0x3dd0cd7f	0.10195445
39	0x3e189f57	0.14904533
40	0xbd4f50b3	-0.05061407
41	0xbdcc6c55	-0.099816
42	0x3cd132b6	0.025536876
43	0x3d7a2ea9	0.061079655
44	0x3d962f43	0.07333233
45	0x3d816562	0.06318165
46	0x3e85f8d7	0.26166412
47	0xbd47ec22	-0.04880918
48	0x3e844e0d	0.25840798
49	0x3e5040ad	0.20337172
50	0x3dcfeae3	0.10152223
51	0x3e8ce0b8	0.27515197
52	0x3e272348	0.16322052
53	0x3dad20ac	0.08453497
54	0x3e167b1f	0.14695404
55	0xbdbfd2cb	-0.093663774
56	0xbce1a33a	-0.027543653
57	0xbe0ec0f8	-0.13940799
58	0x3e0df6bb	0.13863651
59	0xbb5044ed	-0.0031779364
60	0xbe35423c	-0.17701048
61	0xbbd404ab	-0.006470283
62	0xbdab9536	-0.08378069
63	0x3e564f6a	0.20928732
64	0xbd7e4e9b	-0.062086683
65	0xbe106d8a	-0.14104286
66	0xbd9b9eb4	-0.075986296
67	0xb799e37f	-1.8344957e-05
68	0xbc01b986	-0.007917767
69	0x3d8ab978	0.067736566
70	0x3df2243d	0.11823318
71	0x3db6730e	0.08908664
72	0x3e324f02	0.17412952
73	0x3e5f0d2d	0.2178237
74	0xbd598022	-0.053100713
75	0xbdedabfe	-0.116050705
76	0x3e0d102d	0.13775702
77	0xbe0eec18	-0.1395725
78	0x3e6ed07b	0.23321716
79	0x3d057ed1	0.032591645
80	0x3e0a5cd0	0.13511968
81	0x3e41e0c4	0.18933398
82	0xbd9ed36a	-0.07755168
83	0xbd0647bb	-0.03278325
84	0xbd2bb90d	-0.041924525
85	0xbd6cf998	-0.05785522
86	0xbe02c303	-0.12769704
87	0xbd0082b4	-0.03137465
88	0xbdf414cd	-0.1191803
89	0xbd4a59c5	-0.049402017
90	0xbdea28c3	-0.11433556
91	0xbe3758b5	-0.17904933
92	0x3e5a745d	0.21333452
93	0x3da2f456	0.0795676
94	0xbe1dfdfd	-0.1542892
95	0x3d93ad36	0.07210772
96	0xbd40ec0a	-0.047100104
97	0xbdd370b5	-0.103242315
98	0x3d470072	0.04858441
99	0x3e4d3641	0.20040227
100	0x3d039047	0.032120015
101	0x3d93d6dd	0.07218716
102	0xbd82903b	-0.06375166
103	0x3e4ebedf	0.20189999
104	0x3da2802a	0.079346016
105	0xbe2cfec8	-0.16894066
106	0x3e69dea9	0.22838844
107	0xbdb3b6ba	-0.08775087
108	0x3e5cb588	0.21553624
109	0xbe4a6f6c	-0.19769067
110	0x3e52c3ca	0.205825
111	0x3e077938	0.13229835
112	0x3a1ee381	0.00060611224
113	0x3d0338c8	0.032036573
114	0xbe5a37d5	-0.2131036
115	0xbdf1bbf4	-0.11803427
116	0x3e40422a	0.1877524
117	0x3d964dc6	0.07339053
118	0x3e672187	0.22571383
119	0x3e26faca	0.16306606
120	0x3e2b425f	0.16724537
121	0x3d9bdffb	0.0761108
122	0x3d2059d4	0.039148167
123	0xbe3d6d0c	-0.1849863
124	0x3e243950	0.16037488
125	0xbcfa5ceb	-0.030561885
126	0x3e6991b2	0.22809485
127	0xbc93bfbd	-0.018035764
128	0xbdc8f513	-0.09812369
129	0xbcb35c34	-0.021894552
130	0xbe87ff38	-0.26561904
131	0x3e5e89fb	0.21732323
132	0x3df9eb6b	0.122031055
133	0x3e27adc7	0.16374885
134	0xbe976c20	-0.2957468
135	0x3e26399f	0.16232918
136	0x3e3e8b63	0.1860786
137	0xbe33eacd	-0.17570038
138	0xbe54c103	-0.20776753
139	0xbe87bb72	-0.26510197
140	0x3e7cf773	0.2470377
141	0xbe6c5860	-0.23080587
142	0xbdb57c11	-0.088615544
143	0xbcbc0463	-0.02295131
144	0xbdd22851	-0.10261596
145	0xbe506380	-0.20350456
146	0xbea293e9	-0.31753471
147	0xbcf1c18f	-0.029511241
148	0xbe6179f9	-0.22019185
149	0x3cec939e	0.028878983
150	0xbe14fe03	-0.14550023
151	0x3e409316	0.18806109
152	0x3e3c529a	0.18390885
153	0xbea32a4f	-0.31868216
154	0xbcce37a8	-0.025173023
155	0x3e41a841	0.1891184
156	0xbd0e2bb1	-0.034709636
157	0xbe5acec4	-0.21367937
158	0x3e4af7ff	0.19821166
159	0xbebc5e9e	-0.36790937
160	0x3ec54ab6	0.38533562
161	0x3d7064fb	0.058690052
162	0x3e9c607a	0.30542356
163	0x3d4f212b	0.05056874
164	0xbe20415b	-0.15649931
165	0xbe1741b5	-0.14771159
166	0xbd4436f6	-0.047903977
167	0xbeb3e90b	-0.35138735
168	0xbd5f2ba4	-0.05448498
169	0x3ed36fd8	0.41296268
170	0xbd748489	-0.059696708
171	0x3ea74b0f	0.32674453
172	0x3eb98bd2	0.36239487
173	0xbe52cdaf	-0.20586275
174	0x3e96eda2	0.29478174
175	0x3e4a7d4f	0.19774364
176	0x3dbad58a	0.091227606
177	0x3d88a309	0.066717215
178	0x3e08e82c	0.13369817
179	0xbe86a7b4	-0.26299822
180	0xbeabd762	-0.33562762
181	0xbea8ae79	-0.32945612
182	0x3cac5c47	0.021040095
183	0xbde49a12	-0.11162199
184	0x3e1e9cda	0.15489522
185	0x3e9ad7c0	0.3024273
186	0x3e5b6c7d	0.21428104
187	0xbe794ed1	-0.24346472
188	0x3db35454	0.08756319
189	0xbea1d2f4	-0.31606257
190	0x3dc0b1d5	0.09408919
191	0x3ec392af	0.38197848
192	0xbcff874d	-0.031192446
193	0xbdf0c11b	-0.11755582
194	0xbe80d60f	-0.25163314
195	0x3d8b0ed7	0.0678994
196	0xbe904a72	-0.28181797
197	0xbe47b6ce	-0.19503328
198	0xbe75d658	-0.24007547
199	0x3e94d7fb	0.2907103
200	0xbe85d555	-0.26139322
201	0xbe9d2b6f	-0.306972
202	0xbeb6f2a5	-0.35731998
203	0xbda50d26	-0.080591485
204	0x3d4b0eb6	0.049574576
205	0xbe44563f	-0.19173525
206	0xbe8ad128	-0.271127
207	0xbe8a8a4f	-0.27058646
208	0xbe4c0526	-0.19923839
209	0x3eba61b1	0.36402658
210	0xbe89d8f2	-0.2692333
211	0x3ea659a4	0.32490265
212	0x3df96a21	0.121784456
213	0x3e47052c	0.19435567
214	0x3df5309f	0.11972164
215	0xbe9f120a	-0.3106845
216	0x3dce43f9	0.100715585
217	0x3e16f178	0.1474055
218	0xbeb2bf26	-0.3491146
219	0x3e61e99a	0.22061768
220	0x3d12e893	0.03586633
221	0x3e38afce	0.18035814
222	0xbd0c0299	-0.034182165
223	0xbeb1295c	-0.34601867
224	0xbe1bfa59	-0.15232219
225	0xbe764fbf	-0.24053858
226	0x3d5cf475	0.05394407
227	0xbe248a0a	-0.16068283
228	0xbe6c18d9	-0.23056354
229	0xbe7ef0f1	-0.248966
230	0xbe8330ae	-0.25623077
231	0xbe1146d7	-0.1418718
232	0x3eaab8b2	0.33344036
233	0xbe6bf19d	-0.23041387
234	0x3d76504a	0.060135163
235	0xbeba8ea7	-0.3643696
236	0xbe1df628	-0.15425932
237	0xbe76774b	-0.24068944
238	0x3ebb9525	0.36637226
239	0xbdfb56d3	-0.1227242
240	0xbd6b1454	-0.057392433
241	0xbd36fc09	-0.044673953
242	0x3eab9675	0.33513227
243	0xbe9cc9ae	-0.3062262
244	0xbe6b57bd	-0.22982688
245	0x3ea833fb	0.32852158
246	0xbe86276b	-0.2620195
247	0xbe66f802	-0.22555545
248	0x3df63c5a	0.1202323
249	0x3d3f5dd4	0.04672034
250	0xbe44a15a	-0.19202176
251	0xbe968685	-0.29399505
252	0xbe82f7a0	-0.25579548
253	0x3e0db226	0.1383749
254	0xbe933dfa	-0.28758222
255	0xbd59bf60	-0.053161025

conv1.bias f4 [512]
0	0xbc6af10f	-0.014339699
1	0xbc2bc68a	-0.010484347
2	0xbc26d423	-0.010182413
3	0x3d177cab	0.036984127
4	0x3ca36973	0.019947743
5	0x3c734153	0.0148471175
6	0x3dbee390	0.09320748
7	0x38cc1a4a	9.732375e-05
8	0x3c6027eb	0.013681392
9	0x3bc580a5	0.0060272985
10	0x3bfdebe7	0.007749069
11	0x3b49786e	0.0030741948
12	0xba6a1add	-0.00089303945
13	0xbc91e433	-0.01780901
14	0x3c91d2a3	0.017800635
15	0x3bbe1e2c	0.0058019366
16	0x39b76f86	0.0003498757
17	0x3b935702	0.004496456
18	0x3c412591	0.011788742
19	0x3b91f41a	0.004454148
20	0xbc4f87b7	-0.012666634
21	0x3a08fad1	0.0005225363
22	0x3c0d7952	0.008634882
23	0x3d6539b9	0.05596325
24	0xbb695217	-0.0035601908
25	0x3c9c9462	0.019113723
26	0x3c16aed9	0.00919696
27	0x3bee7a1c	0.00727774
28	0x3c15efa5	0.009151374
29	0x3c5244ea	0.012833813
30	0x3c424a8f	0.0118585965
31	0x3af4d8bc	0.0018680315
32	0x3bd71ad1	0.006564476
33	0x3d3f8884	0.04676105
34	0xbcbdf01f	-0.023185788
35	0x3c3fcf7c	0.011707183
36	0xbbb39c22	-0.005481259
37	0xbc99b938	-0.018765077
38	0x3c2146ac	0.00984351
39	0x3c1520e2	0.009102078
40	0x3c0b5755	0.008504708
41	0xbc111434	-0.008854914
42	0x3ccca409	0.024980562
43	0x3cbf2004	0.023330696
44	0x3b553130	0.0032530539
45	0xbc2eb97e	-0.010664342
46	0x3d29ce32	0.04145641
47	0xbcbb3aee	-0.022855248
48	0x3c9f6312	0.01945642
49	0x3b4ac266	0.0030938624
50	0xbc5848ac	-0.01320092
51	0x3cf66972	0.030079577
52	0x3c47b124	0.01218823
53	0xbc0636ec	-0.008191805
54	0x3bb808ae	0.005616269
55	0xbc7addad	-0.015311641
56	0xbc001077	-0.0078164255
57	0xbc9425b2	-0.01808438
58	0x3b9a6a4c	0.0047123786
59	0x3af1f8e0	0.0018461011
60	0x3c174cd5	0.009234627
61	0x3c860cb2	0.016363475
62	0x3bae758b	0.005324071
63	0xbb9e50f8	-0.0048314296
64	0xbb621bfa	-0.0034501539
65	0xbc67e02b	-0.014152567
66	0xbba8b754	-0.0051488075
67	0xbaddb7c1	-0.0016915725
68	0x3c35e2d8	0.011101447
69	0x3b715cf1	0.003682908
70	0xbb6eaeda	-0.0036420138
71	0x3b53a64d	0.0032295168
72	0xbb48692c	-0.0030580265
73	0x3ceaaebf	0.028647779
74	0xbc0d0d9a	-0.0086092
75	0x3cb3518e	0.021889474
76	0x3a94c17a	0.0011349164
77	0xbc118b3c	-0.008883294
78	0x3c2fe7b9	0.010736399
79	0xbc4fba37	-0.012678674
80	0x3c965b63	0.018354123
81	0x3d25ee9a	0.04051075
82	0x3c57e423	0.013176951
83	0x3c17a435	0.009255459
84	0x3b88606a	0.004161884
85	0x3a5ee1f1	0.0008502296
86	0xbc1c4db5	-0.009540011
87	0x3ade4889	0.0016958873
88	0xbaf87501	-0.0018955768
89	0x3d9b422d	0.075809814
90	0xbbaf9ba3	-0.0053591295
91	0x3d0e6a94	0.03476961
92	0x3c3ec3c3	0.011643353
93	0xba5c987b	-0.00084150553
94	0xbc22ecbd	-0.009944138
95	0x3b7e300c	0.0038785962
96	0xbc2da269	-0.010597804
97	0xbc1ceec1	-0.009578408
98	0x3d0805df	0.033208724
99	0x3c050002	0.008117678
100	0xbc8718fb	-0.016491404
101	0x3d402760	0.04691255
102	0x3a9a2393	0.001175987
103	0x3c3ea252	0.01163538
104	0xbc2db521	-0.0106022665
105	0x3ca484f2	0.020082925
106	0x3c1143d6	0.008866271
107	0xbc0e8865	-0.008699511
108	0x3beb428a	0.007179563
109	0xbc392b1f	-0.011301785
110	0x3b315875	0.002706078
111	0x3ccbdf3b	0.024886718
112	0x39f2043d	0.00046160995
113	0x3c6ecf94	0.014575858
114	0xbcf6d311	-0.030129941
115	0xbc12e493	-0.008965629
116	0xbb16bb2e	-0.0022999751
117	0x3c2002f2	0.009766327
118	0x3d303959	0.04302344
119	0x3b7f05d4	0.0038913386
120	0x3b1fb527	0.002436945
121	0x3a8bb03a	0.0010657378
122	0xbc9bcf21	-0.019019665
123	0x3b9cfb2b	0.0047906837
124	0xbac5149b	-0.0015036048
125	0x3a64cb6d	0.00087278226
126	0x3c83d534	0.016092874
127	0x3ce3ad69	0.02779265
128	0x3c0fbd4b	0.008773158
129	0x3c186655	0.009301742
130	0xbc2b0f97	-0.010440729
131	0xbb2e58a7	-0.0026603134
132	0xbcc14dce	-0.02359667
133	0xbb824710	-0.0039757565
134	0xbd03d7a9	-0.03218809
135	0xbc15c4d0	-0.009141162
136	0xbd18610c	-0.037201926
137	0x3cccaecb	0.024985692
138	0x3cc4a636	0.024005037
139	0x3c03f89f	0.008054881
140	0x3c9b9485	0.018991718
141	0xba2e933e	-0.0006659514
142	0xbd8b5a09	-0.06804282
143	0xbc288edc	-0.010287967
144	0xbbb9979a	-0.0056638243
145	0x3c438372	0.0119331945
146	0xbb8b2788	-0.004246656
147	0x3c0d3402	0.008618357
148	0xbc03578d	-0.008016479
149	0x3c9a10a5	0.018806765
150	0x3c9004ac	0.017580353
151	0xbc1a1ce7	-0.009406305
152	0xbda7fef2	-0.08202924
153	0x3c883550	0.016626984
154	0xbc86bd30	-0.016447634
155	0x3c65585b	0.013998116
156	0xbc6ca53b	-0.014443691
157	0xbb4d102d	-0.003129016
158	0xbae9ea42	-0.0017846304
159	0x3cdd1378	0.026986822
160	0xbd2e4b1b	-0.042552095
161	0xbba070fc	-0.0048962813
162	0xbbb3fe64	-0.005492972
163	0x3bb240a9	0.005439837
164	0x3cbfe63b	0.023425212
165	0x3bb30012	0.005462655
166	0x3ca3ef8c	0.020011686
167	0xbc0ac914	-0.008470792
168	0x3c8729e1	0.016499462
169	0xbc138626	-0.009004151
170	0xbba7e3a9	-0.0051235748
171	0xbc2de8b0	-0.010614559
172	0xbce06e39	-0.027396308
173	0x3c1d0681	0.00958407
174	0x3bc9254a	0.0061384784
175	0xbc82a306	-0.015946876
176	0x3c486f8f	0.012233629
177	0xbcf19b6f	-0.029493062
178	0xbbe11e7a	-0.006870088
179	0xbb814a1a	-0.003945601
180	0x3c28f637	0.010312608
181	0xbabaf974	-0.0014265017
182	0x3d1fd963	0.039025676
183	0xbb39bfad	-0.0028343007
184	0xbc5f2851	-0.013620452
185	0xbb4dddc1	-0.0031412693
186	0x3d2d05cc	0.042241856
187	0xba1bd23c	-0.0005944108
188	0x3bb5adec	0.0055444147
189	0x3c42b68e	0.011884345
190	0xbce8c0f6	-0.028412323
191	0xbbbf6982	-0.005841435
192	0xbcb66fae	-0.02227005
193	0x3c97f820	0.018550932
194	0x3ceeb407	0.029138578
195	0x3d71d2ff	0.059039112
196	0x3b7badaa	0.0038403072
197	0x3c25c1f3	0.010117042
198	0xbc8ebd87	-0.017424358
199	0x3b4fa575	0.0031684313
200	0xbb96ea09	-0.004605536
201	0x3bf0f151	0.007352986
202	0x3c64ae0b	0.013957511
203	0xbb6d9d41	-0.003625706
204	0xbc424804	-0.01185799
205	0x3cc6502a	0.024208147
206	0x3ca8e8a7	0.02061875
207	0x3c1cd21d	0.009571579
208	0x3caba6ba	0.020953525
209	0xbc776678	-0.015100114
210	0x3c438073	0.01193248
211	0xbc2d98f8	-0.010595553
212	0x3b943dc0	0.0045239627
213	0xbbb00722	-0.005371944
214	0xbc214271	-0.009842501
215	0xbae5d73d	-0.001753546
216	0xbbf5646d	-0.0074887783
217	0xbc4e2b29	-0.012583532
218	0x3c718b60	0.014742702
219	0xbbc293ea	-0.005938043
220	0xbc56b4df	-0.0131046465
221	0x3b3503e1	0.002762072
222	0xbc1ef4eb	-0.009701948
223	0x3c363d32	0.011122989
224	0x3c7c83c4	0.015412275
225	0xbc2a2e32	-0.01038699
226	0x39734e6f	0.00023203505
227	0xbaddb1c1	-0.0016913937
228	0x3b7352f1	0.0037128294
229	0x3afd9091	0.0019345452
230	0x3c0658d6	0.008199891
231	0x3ca3ef9a	0.020011712
232	0xbbf17d84	-0.007369699
233	0x3d06f7e0	0.032951236
234	0xbc1d87d5	-0.009614904
235	0x3c2e73d5	0.010647734
236	0xbb397bd6	-0.0028302572
237	0xbc08e022	-0.008354219
238	0xbc24f47c	-0.010068055
239	0xbb301b4e	-0.0026871744
240	0x3c1a7434	0.009427119
241	0xba0f79ad	-0.0005473148
242	0xbaa93fed	-0.0012912728
243	0xbae6cc3b	-0.0017608473
244	0xba5cc07b	-0.0008421016
245	0xbacc14a0	-0.0015570112
246	0x3bbdd34b	0.0057930104
247	0xb8f59b34	-0.00011711419
248	0xbbdb2215	-0.0066874125
249	0x3ba10cf2	0.0049148733
250	0x3c2c1d96	0.010505101
251	0x3cd1d2b2	0.025613163
252	0x3c2c7f38	0.010528378
253	0xbbd73dc8	-0.006568644
254	0x3a3cfabe	0.00072089944
255	0x3b01d921	0.0019813257

conv1.lin.weight f4 [512, 20]
0	0xbc42669b	-0.011865283
1	0x3c06de2a	0.008231679
2	0x3cfc6922	0.03081185
3	0xbba1ba60	-0.0049355477
4	0x3c1d915f	0.009617179
5	0xbbce4915	-0.006295333
6	0xbcc94dfa	-0.024573315
7	0xbd8a0527	-0.06739264
8	0xb41b0a2c	-1.44392e-07
9	0xbd0a56e7	-0.033774283
10	0xbd15dce8	-0.036587626
11	0xbd84be4e	-0.0648161
12	0x3dc09e60	0.09405208
13	0xbd096d43	-0.033551466
14	0x3e52faf7	0.20603548
15	0xbd6aeb95	-0.057353575
16	0xbbabba6d	-0.0052407295
17	0x3da729c8	0.08162266
18	0xba4d3142	-0.00078274694
19	0x3d916bf5	0.07100669
20	0xbc3515d7	-0.01105257
21	0xbca5a820	-0.02022177
22	0x3d6b2b28	0.057414204
23	0x3b9946bc	0.0046776216
24	0xba8571e1	-0.0010181033
25	0x3cc77d70	0.024351805
26	0xbd889628	-0.06669265
27	0xbc8bbbdc	-0.017057352
28	0x33ee9e96	1.1111585e-07
29	0x3b73d419	0.0037205277
30	0x3b0c3357	0.0021392906
31	0xbd31bb4c	-0.04339151
32	0xbc981f4c	-0.018569611
33	0x3d33fa91	0.04394013
34	0x3d9c94c5	0.07645563
35	0xbcbcc1c0	-0.023041606
36	0xbcc2d1f9	-0.023781763
37	0xbc8981a6	-0.016785454
38	0xbc43cfa9	-0.0119513655
39	0xbcbe5366	-0.023233127
40	0x3b116bd6	0.002218952
41	0xbb869c05	-0.0041079544
42	0xbd0440d3	-0.032288384
43	0xbd94a36d	-0.072577335
44	0x3d8e0478	0.06934446
45	0xbbddbbb3	-0.0067667603
46	0xbd26df82	-0.040740497
47	0xbd5f03aa	-0.054446854
48	0xb97f1beb	-0.00024329095
49	0xbd625297	-0.055254545
50	0xbd72f07f	-0.059311386
51	0x3b8c2cd7	0.0042778063
52	0xbdb026a3	-0.08601119
53	0xbd99c67f	-0.07508563
54	0x3e11e3f1	0.14247109
55	0xbd73983a	-0.059471346
56	0xbbd8386c	-0.006598523
57	0x3d35fce8	0.044430643
58	0x3cdc84f3	0.026918864
59	0x3d9236a2	0.07139327
60	0xbcab526e	-0.020913329
61	0x3ce3e83c	0.027820699
62	0xbd28b832	-0.041191287
63	0x3c7255ea	0.014790991
64	0xbd4106be	-0.04712557
65	0xbbd085f6	-0.0063636256
66	0x3d33ed29	0.043927345
67	0xbd8c218a	-0.068423346
68	0x364381d6	2.9132839e-06
69	0xbd57ac6c	-0.05265467
70	0xbddfcda8	-0.10927898
71	0xbdf55b56	-0.119803116
72	0xbdf8dafb	-0.12151142
73	0x3c40744a	0.0117464755
74	0xbdf07fc9	-0.11743123
75	0x3dae5c60	0.08513713
76	0x3c8762a8	0.016526535
77	0xbd1534dc	-0.036427364
78	0x3cf2a16b	0.029617986
79	0xbc065df3	-0.00820111
80	0x3ca5c9d3	0.020237839
81	0x3c8675d1	0.016413601
82	0xbcbf61a8	-0.023361996
83	0x3d074c71	0.033031885
84	0x3be4928a	0.0069754766
85	0xbcc56dde	-0.02410024
86	0x3d8837ad	0.06651244
87	0x3cac9d7e	0.021071192
88	0xb6f2bd93	-7.2342314e-06
89	0xbc918a14	-0.017766036
90	0xbda4ca87	-0.080464415
91	0x3dc54e2a	0.09634049
92	0x3c89a174	0.01680062
93	0x3d5dfca7	0.054196026
94	0xbd54201f	-0.051788446
95	0x3d5d34ce	0.054005437
96	0x3c990786	0.018680345
97	0x3d9a60f7	0.07538026
98	0x3d71d85a	0.05904422
99	0x3cf6c598	0.030123517
100	0x3c37f0ae	0.011226816
101	0x3c05f9fc	0.008177277
102	0x3c9e8f10	0.019355327
103	0x3d300d1d	0.042981256
104	0xbda0128e	-0.07816039
105	0xbae08de8	-0.0017132135
106	0x3d5a9897	0.053368177
107	0xbce0e928	-0.027454928
108	0x37034070	7.8232115e-06
109	0x3cf11dc9	0.029433148
110	0xbdd7a425	-0.10529355
111	0xbd89fc32	-0.067375556
112	0xbc6ddd6c	-0.014518123
113	0x3d0e097d	0.034677017
114	0xbe94a44f	-0.29031608
115	0x3d3b9ba0	0.045802712
116	0x3cf99b04	0.030469425
117	0xbe0822a2	-0.13294461
118	0x3c67ce19	0.014148259
119	0xbd88446f	-0.06653678
120	0xbd859718	-0.065229595
121	0x3abb5dfc	0.0014294977
122	0x3d0e12da	0.034685947
123	0x3ce1fb63	0.02758569
124	0xbd00a80d	-0.031410266
125	0xbccd0148	-0.025025025
126	0xbc193f29	-0.009353437
127	0x3dfbbf1e	0.12292312
128	0x340b0c89	1.2949944e-07
129	0x3d95240f	0.07282268
130	0x3e42ba53	0.1901639
131	0x3e6c169b	0.23055498
132	0x3d8df01b	0.06930562
133	0x3ca4715d	0.020073587
134	0xbe85955b	-0.26090512
135	0x3d36033c	0.04443668
136	0x3d3f67d6	0.046729885
137	0x3dc3cfe2	0.09561135
138	0x3d6c0e98	0.057631105
139	0x3dc5eada	0.09663935
140	0xbda56f47	-0.08077865
141	0xbd810a0e	-0.06300746
142	0xbcb5e540	-0.022204041
143	0x3d1b9236	0.037981234
144	0x3d7f1d82	0.062284
145	0xbc26ee8b	-0.010188709
146	0x3d891467	0.066933446
147	0xbc952048	-0.01820387
148	0xb19b9b45	-4.528746e-09
149	0xbd2216e3	-0.039572608
150	0xbd249373	-0.04017968
151	0xbd171af0	-0.036890924
152	0xbda19db5	-0.07891408
153	0xbcb3790c	-0.021908306
154	0xbd283749	-0.04106835
155	0xbcf7e075	-0.030258397
156	0x3a474d2e	0.0007602748
157	0x3c00d5d2	0.007863479
158	0x3cd01ebc	0.02540528
159	0xbccb76ee	-0.024836984
160	0x3d4b271b	0.04959784
161	0xbb22263e	-0.0024742032
162	0x3c4b0953	0.01239236
163	0xbd881dc9	-0.06646306
164	0xbcaddabd	-0.021222467
165	0x3c1da39a	0.009621525
166	0x3d5ed308	0.054400474
167	0x3c16c6d8	0.0092026815
168	0xba0e5241	-0.0005429127
169	0x3cb2be14	0.021819152
170	0x3b53d231	0.0032321329
171	0xbda7e3a9	-0.081977196
172	0xbdab127a	-0.083531335
173	0x3d7fc2d9	0.06244168
174	0xbd77efef	-0.060531553
175	0x3d8e3e2b	0.06945451
176	0xbc89e203	-0.016831404
177	0xbd603b2a	-0.054743923
178	0xbd74b5c1	-0.059743647
179	0xbc9de9f6	-0.0192766
180	0x3b6df2d4	0.0036308067
181	0x3d3e7b5f	0.046504375
182	0xbd7dc694	-0.061956957
183	0xbd3679b8	-0.044549674
184	0x3b7c9548	0.0038541127
185	0xbc2b76c3	-0.010465327
186	0xbbd04036	-0.006355311
187	0x3d939034	0.07205239
188	0x35c8f22b	1.4971641e-06
189	0xbcec3501	-0.028833868
190	0x3d50a3c8	0.050937444
191	0xbd7e6194	-0.062104777
192	0x3d9b19ae	0.075732574
193	0xbd6c14cf	-0.057637032
194	0xbd707e21	-0.058714036
195	0x3c53267e	0.012887595
196	0x3c083cc2	0.008315267
197	0x3d7604f5	0.06006332
198	0x3d893e86	0.067013785
199	0x3d980575	0.07422916
200	0x3cb3f34c	0.021966599
201	0xbd8de348	-0.06928116
202	0xbd0381f5	-0.03210636
203	0x3a56da8e	0.00081960193
204	0xbdbdb0ca	-0.092622355
205	0x3c069134	0.00821333
206	0x3d5757c2	0.052573927
207	0xbd5d49a8	-0.054025322
208	0x33c1d62b	9.02622e-08
209	0xbd8d9ccb	-0.069146715
210	0x3d0c3ef0	0.03423971
211	0x3c7c5105	0.015400176
212	0xbd32002d	-0.0434572
213	0x3d8607ee	0.06544481
214	0xbe2c838b	-0.16847055
215	0x3d5eeca2	0.05442489
216	0x3d2a8e61	0.04163969
217	0xbd1f41ab	-0.038880985
218	0xbd8016e1	-0.06254364
219	0x3d3d9ff6	0.04629513
220	0xbd42ba96	-0.047541223
221	0x3d1d1501	0.03835011
222	0xbd211941	-0.039330725
223	0x3d171b7d	0.03689145
224	0xbd464078	-0.048401326
225	0x39de1e6f	0.00042365814
226	0xbd19fc08	-0.03759387
227	0x3d7225e8	0.05911818
228	0xb5c1f85a	-1.44519e-06
229	0xbafb973b	-0.001919485
230	0x3d913279	0.07089705
231	0xbdadc35f	-0.0848453
232	0xbddf76ac	-0.10911307
233	0x3d4bc3c1	0.049747232
234	0xbe8bde07	-0.2731783
235	0x3dbccdf2	0.092189685
236	0x3cef7f9c	0.029235654
237	0xbe1b4f43	-0.15166955
238	0xbc73c666	-0.014878845
239	0xbd7b2f0c	-0.061324164
240	0xbc2091c3	-0.009800377
241	0xbcac5543	-0.02103675
242	0x3bf9ca76	0.007623012
243	0x3ccc9383	0.024972683
244	0xbbb5d245	-0.0055487477
245	0xbc74a0aa	-0.014930883
246	0x3d937125	0.07199315
247	0xbc3bb23a	-0.011456067
248	0x33ea7412	1.0917587e-07
249	0xbdaa6aa0	-0.08321118
250	0xbdcffa3a	-0.10155149
251	0xbd510c2a	-0.05103699
252	0xbd4b005f	-0.0495609
253	0x3cd6893b	0.026188483
254	0xbd0d4f74	-0.0344996
255	0x3d18ccf5	0.037304837

conv2.att_src f4 [1, 1, 128]
0	0xbdc55ea9	-0.096371956
1	0xbde591e5	-0.11209468
2	0xbcf71339	-0.030160533
3	0x3abb3556	0.0014282863
4	0x3e04d113	0.1297038
5	0xbb8b85a7	-0.004257876
6	0x3bdc6aa8	0.0067265816
7	0x3e428dea	0.18999448
8	0x3c486479	0.012230986
9	0x3dfce36a	0.12348063
10	0x3db75706	0.08952145
11	0x3e32a6a5	0.17446382
12	0x3ca06a8c	0.019582056
13	0x3df1c7d3	0.118056916
14	0x3de1949b	0.11014672
15	0xbe4fbde5	-0.20287283
16	0xbe1cef6c	-0.15325707
17	0x3dd09ddf	0.101863615
18	0xbdf0528d	-0.11734495
19	0x3d601fe5	0.054717917
20	0x3ded7e4b	0.11596354
21	0xbdc12275	-0.094304
22	0x3dc965c2	0.09833862
23	0xbd17adbd	-0.037030924
24	0xbd58bf1f	-0.052916642
25	0x3bb9d0ea	0.0056706565
26	0xbd844191	-0.06457818
27	0x3631c840	2.6491616e-06
28	0x3d6eec5a	0.05833087
29	0xbc5e4ea8	-0.013568558
30	0x3dd6dd98	0.104914844
31	0x3dd0526d	0.101719715
32	0x3e3d7d2b	0.18504779
33	0xbe0ab44e	-0.13545343
34	0xbcce7c32	-0.025205705
35	0x3e0c119c	0.13678592
36	0x3df7d55e	0.121012434
37	0x3de045f0	0.109508395
38	0xbd90068f	-0.07032501
39	0x3ce75096	0.028236669
40	0xbe365ec2	-0.17809585
41	0xbe04010f	-0.12891029
42	0x3d0dff29	0.034667168
43	0xbd94458e	-0.07239829
44	0x3e5660dc	0.20935386
45	0x3d2ee645	0.04270007
46	0x3e0c4930	0.13699794
47	0xbe13e679	-0.14443387
48	0x3dde8195	0.108645596
49	0x3e471097	0.19439922
50	0x3df49a85	0.11943535
51	0xbd8cdcef	-0.06878077
52	0x3e2d1bd9	0.16905154
53	0x3e1acca8	0.15117133
54	0xbe39a57a	-0.1812953
55	0xbce55caf	-0.027998297
56	0x3e2ae748	0.1668979
57	0x3e46249d	0.19349904
58	0x3d90265a	0.07038565
59	0x3e2514ce	0.16121218
60	0x3d2016e3	0.039084326
61	0xbe3c5f15	-0.18395646
62	0x3e065cfb	0.13121407
63	0xbcdbbc00	-0.026823044
64	0xbc435d4d	-0.0119241
65	0xbd4688b0	-0.0484702
66	0xbd945704	-0.072431594
67	0xbe00dd97	-0.1258453
68	0xbd415753	-0.04720242
69	0xbe2c88b6	-0.16849026
70	0xbda0d95e	-0.078539595
71	0xbdfe0ff3	-0.12405386
72	0x3dbd8f32	0.09255828
73	0x3dba991a	0.09111233
74	0xbdb44a02	-0.08803178
75	0x3e320c0c	0.17387408
76	0xbb0ed84e	-0.0021796408
77	0xbd2727f0	-0.04080957
78	0x3d89b783	0.06724455
79	0x3e1ec153	0.15503435
80	0x3e299025	0.16558893
81	0xbe0c9e85	-0.13732345
82	0x3de18284	0.11011222
83	0x3e641804	0.22274786
84	0x3da3b06b	0.079926334
85	0x3d7ca0aa	0.06167666
86	0x3c377ddb	0.01119944
87	0xbd7ed118	-0.062211126
88	0x3bbf1cec	0.005832305
89	0xbd5f28df	-0.054482337
90	0xbdf0c4b3	-0.117562674
91	0x3d319c64	0.043362036
92	0xb9955b58	-0.0002848755
93	0xbbf593ac	-0.0074944105
94	0xbe25ce63	-0.16192012
95	0x3c7b4539	0.015336328
96	0xbe3823eb	-0.17982452
97	0xbdf32047	-0.11871391
98	0x3d8280c0	0.06372213
99	0x3cbc493d	0.022984141
100	0x3e25b60a	0.16182724
101	0xbd911107	-0.07083326
102	0x3d63ae26	0.055586003
103	0x3e0b2002	0.13586429
104	0xbd8cf7e3	-0.06883218
105	0x3cf5f18d	0.030022407
106	0xbe31f4a2	-0.17378476
107	0x3e4b27ba	0.19839373
108	0xbe5f5660	-0.21810293
109	0x3ce13e25	0.027495453
110	0x3e00ba9f	0.1257119
111	0xbd2fba04	-0.042902008
112	0xbdf4c9c6	-0.11952548
113	0x3e6a90aa	0.22906747
114	0x3db60ebf	0.08889531
115	0x3d78d94c	0.060754105
116	0x3c19e3e5	0.009392713
117	0x3e254e4a	0.16143146
118	0xbd94f338	-0.07272953
119	0x3e248511	0.16066386
120	0xbe4112f0	-0.1885488
121	0x3e13ffd1	0.14453055
122	0xbe16122a	-0.14655367
123	0xbe1dbc05	-0.15403755
124	0x3d739738	0.059470385
125	0xbe056d41	-0.13029958
126	0x3d974448	0.073860705
127	0x3ced67b2	0.02898011

conv2.att_dst f4 [1, 1, 128]
0	0xbccd818a	-0.025086183
1	0xbe173585	-0.1476651
2	0xbe43d1e1	-0.19123031
3	0xbdef17ee	-0.11674486
4	0x3df4e8cc	0.11958465
5	0xbd4f5c7b	-0.050625306
6	0x3d2dc943	0.042428266
7	0x3e076b64	0.1322456
8	0xbc03991e	-0.008032111
9	0xbe56967f	-0.20955847
10	0x3ea6f2da	0.32607156
11	0x3e3e6643	0.18593697
12	0x3e0b7ec2	0.13622573
13	0x3e902a6c	0.28157365
14	0xbdf2bf3e	-0.11852883
15	0x3d1a044f	0.037601765
16	0x3cd7f58b	0.026362201
17	0x3e65b545	0.2243243
18	0x3d970e57	0.07375782
19	0xbe4af83a	-0.19821253
20	0x3c3714ce	0.011174394
21	0x3cc8df25	0.024520466
22	0xbea9fe3a	-0.33201772
23	0x3db78bd6	0.089622185
24	0xbe8f996f	-0.28046748
25	0x3c608089	0.01370252
26	0x3e9ecbb3	0.31014785
27	0x3e81c801	0.25347903
28	0xbcb2ad48	-0.021811143
29	0xbddbb2e5	-0.10727481
30	0xbe292a55	-0.16520055
31	0xbe92024e	-0.28517383
32	0x3e196df5	0.14983352
33	0xbde686a4	-0.112561494
34	0x3e7e3d48	0.24828064
35	0x3e9de58a	0.30839187
36	0x3dd0eeb7	0.10201781
37	0x3d858de8	0.06521207
38	0x3ebb96a1	0.36638358
39	0x3ea753f6	0.32681245
40	0xbe830d9f	-0.2559633
41	0xbe92437f	-0.2856712
42	0x3ec20dfb	0.3790129
43	0x3daa3366	0.08310585
44	0x3e488d22	0.19585088
45	0x3e608dac	0.21929044
46	0xbe18503e	-0.1487436
47	0xbdbc6bc8	-0.09200245
48	0x3e000941	0.1250353
49	0x3de53230	0.11191213
50	0x3e1e0608	0.15431988
51	0xbcae5bfe	-0.0212841
52	0x3c843f49	0.016143458
53	0x3da58333	0.08081665
54	0x3d67cf52	0.0565942
55	0x3d8f1b80	0.06987667
56	0xbdb678cb	-0.08909758
57	0xbcd3e372	-0.02586529
58	0x3e550212	0.20801571
59	0x3eaedce7	0.3415291
60	0x3e3dc5b7	0.18532453
61	0x3c273cd5	0.010207375
62	0x3bfe7827	0.007765788
63	0xbdf7ba13	-0.12096038
64	0x3e7542ba	0.23951235
65	0xbe9ea991	-0.30988744
66	0x3eaacb14	0.3335806
67	0xbe0250ff	-0.1272621
68	0x3c642ed2	0.013927178
69	0x3c0179ba	0.007902557
70	0xbeaa4bf2	-0.33261067
71	0xbdd7a53b	-0.10529562
72	0xbeb9f6d1	-0.36321118
73	0x3e975f0a	0.29564697
74	0x3e458446	0.1928874
75	0x3e6a81fc	0.22901148
76	0x3d73dba8	0.059535652
77	0xbdc9b630	-0.09849203
78	0x3cce2d70	0.02516815
79	0x3e8e2309	0.27761105
80	0xbd0fb5dd	-0.035085548
81	0x3e51d312	0.20490673
82	0xbe83383f	-0.2562885
83	0xbd4c92a0	-0.04994452
84	0x3e53ea7d	0.20694919
85	0x3ecfa75d	0.40557376
86	0x3e4c18c8	0.19931328
87	0x3dcefa1b	0.101062976
88	0xbe47d9a8	-0.19516623
89	0xbd810001	-0.06298829
90	0x3dc10c6a	0.09426196
91	0xbba10045	-0.004913362
92	0xbdd0579d	-0.10172961
93	0xbec69927	-0.3878872
94	0x3e142e48	0.1447078
95	0x3e8bfb8b	0.2734035
96	0xbb9f29ff	-0.0048573012
97	0xbc4f162a	-0.012639562
98	0xbe70db70	-0.23521209
99	0x3d1ef402	0.038806923
100	0xbcb6e0a0	-0.022323906
101	0xbe0a3b8a	-0.13499275
102	0x3d3f7833	0.04674549
103	0xbdb6280f	-0.08894359
104	0xbe4e8031	-0.20166089
105	0xbd14a47f	-0.03628969
106	0xbe896309	-0.2683337
107	0x3e31da59	0.1736845
108	0x3d8aa5eb	0.067699276
109	0xbc3a6acd	-0.011378002
110	0xbe7b4659	-0.24538554
111	0x3e6c36ef	0.2306783
112	0xbe132584	-0.1436978
113	0x3e22810e	0.15869543
114	0x3ba4f21c	0.0050337445
115	0x3dc8f973	0.09813204
116	0xbdbab760	-0.09117007
117	0x3e8de8df	0.2771673
118	0xbe1b7f02	-0.15185168
119	0x3e42b927	0.19015943
120	0xbd00aaa9	-0.031412754
121	0x3e340f05	0.17583854
122	0xbd6fd5d6	-0.05855354
123	0xbeb6282d	-0.35577527
124	0x3b866f56	0.0041026277
125	0xbe453f86	-0.19262514
126	0xbdd54acd	-0.10414658
127	0xbc11de6b	-0.008903126

conv2.bias f4 [128]
0	0xbe52dab1	-0.20591237
1	0x3d827d33	0.06371536
2	0x3da23032	0.07919349
3	0xbd77ba77	-0.06048056
4	0x3d7f8c9c	0.062389955
5	0xbd9860e8	-0.074403584
6	0xbdc4ec38	-0.09615368
7	0x3dd2439b	0.10266801
8	0xbd936619	-0.07197208
9	0xbd81f280	-0.06345081
10	0x3d78648b	0.06064276
11	0x3db63048	0.08895928
12	0x3dd7dba6	0.105399415
13	0x3d8787b8	0.06617683
14	0xbd0a8492	-0.033817835
15	0xbd88714e	-0.06662236
16	0x3dacd210	0.08438504
17	0xbd91436a	-0.07092936
18	0xbd5f2bcc	-0.054485127
19	0xbda9392e	-0.08262859
20	0xbd8d2e73	-0.06893625
21	0x3dae481f	0.0850985
22	0xbd151eed	-0.036406446
23	0x3dae84ef	0.08521449
24	0xbd952a51	-0.07283462
25	0x3d888ce8	0.06667501
26	0x3dc535fa	0.09629436
27	0xbd5b3920	-0.053521276
28	0x3dc367dc	0.09541294
29	0x3d852d55	0.06502787
30	0xbd7a534a	-0.061114587
31	0xbd9291f0	-0.071567416
32	0x3d92e931	0.07173384
33	0x3d5ab4d8	0.053395122
34	0x3d848418	0.064705074
35	0xbd6a9453	-0.05727036
36	0xbd94eb5b	-0.07271453
37	0xbd7e3c0c	-0.062068984
38	0x3b81c838	0.0039606355
39	0x3dc3c669	0.09559328
40	0xbdc688fc	-0.096940964
41	0xbe12ac7f	-0.14323615
42	0x3ea2c412	0.31790215
43	0x3d7b08a1	0.061287526
44	0x3dce0e8e	0.1006137
45	0x3e85a27b	0.26100525
46	0x3d854e24	0.06509045
47	0xbd70d4de	-0.058796756
48	0x3d97d436	0.07413523
49	0x3da588a4	0.08082703
50	0x3e825f1d	0.2546319
51	0x3d9eaf46	0.077482745
52	0x3d6fbfa0	0.058532357
53	0x3da7d657	0.08195179
54	0xbdf0a2ee	-0.11749826
55	0x3dec99de	0.11552785
56	0x3d8829de	0.066486105
57	0x3dc3725f	0.09543299
58	0x3df6c380	0.120490074
59	0x3da6661d	0.08124945
60	0x3cfc44b9	0.030794488
61	0x3d1763fe	0.036960594
62	0x3d7c9cf5	0.061673123
63	0xbd9a62cd	-0.07538376
64	0xbdc664af	-0.096871726
65	0xbd95002b	-0.07275423
66	0x3e79d991	0.24399401
67	0xbd6e7df8	-0.058225602
68	0x3d6bc572	0.057561345
69	0x3bae10ca	0.00531206
70	0xbd7bb550	-0.06145221
71	0xbd825660	-0.06364131
72	0xbd8cf3aa	-0.06882413
73	0x3e1ec085	0.15503128
74	0xbe5650a7	-0.20929204
75	0xbdb52a96	-0.08846013
76	0x3d68de2e	0.056852512
77	0xbdad9d76	-0.08477299
78	0xbd6c3bd4	-0.057674244
79	0x3e662fde	0.22479197
80	0x3d9326d4	0.0718514
81	0x3df447fb	0.11927792
82	0xbda0ea04	-0.07857135
83	0x3e25451c	0.16139644
84	0xbd992ec0	-0.0747962
85	0x3ea3ab09	0.31966427
86	0x3dff7957	0.124743156
87	0xbd4f41dc	-0.050599918
88	0xbd9b7339	-0.07590336
89	0x3de131bf	0.109958164
90	0x3d733d32	0.059384532
91	0x3d80fca2	0.06298186
92	0x3d65635f	0.05600297
93	0xbd0b9a16	-0.034082495
94	0x3d57fc90	0.052731097
95	0x3e6393f9	0.22224416
96	0xbd838e37	-0.0642361
97	0xbda44c36	-0.080223486
98	0x3d89b79f	0.06724476
99	0x3dc8df81	0.09808255
100	0x3dba1068	0.090851605
101	0xbe53f675	-0.20699485
102	0xbd75ad0d	-0.059979487
103	0x3ddb1c48	0.106987536
104	0xbd9e87a0	-0.07740712
105	0xbd8db132	-0.06918563
106	0xbd629c05	-0.055324573
107	0x3deafe1d	0.114742495
108	0xbd9481f9	-0.07251353
109	0xbd730f9f	-0.05934107
110	0x3e26952a	0.16267839
111	0x3e341a4d	0.17588158
112	0x3d61f543	0.05516554
113	0x3e101ce3	0.1407352
114	0xbda82fe0	-0.082122564
115	0xbd758bf9	-0.05994794
116	0x3d85c7d7	0.06532257
117	0x3dc3d873	0.09562769
118	0x3da4b10a	0.0804158
119	0x3d6625a0	0.056188226
120	0xbd87cec6	-0.06631236
121	0xbd5245a7	-0.051335957
122	0xbe33d2e8	-0.17560923
123	0xbdd91972	-0.106005564
124	0x3d963b43	0.07335522
125	0xbc93883c	-0.018009298
126	0xbd7e3c2c	-0.062069103
127	0x3d7d08a6	0.061775826

conv2.lin.weight f4 [128, 512]
0	0xbb0d32e7	-0.0021545233
1	0x3a9c2ba5	0.0011914863
2	0xbc0e5fb6	-0.008689811
3	0x3c7397a3	0.014867696
4	0x3bfb01e0	0.0076601356
5	0x3cd3935a	0.025827099
6	0x3d691fd1	0.056915108
7	0x3c9bb8a1	0.019008936
8	0x3c969157	0.01837985
9	0xbc480004	-0.012207035
10	0xbb82dfaf	-0.0039939503
11	0x3d23b8cd	0.03997116
12	0xbcd7cf32	-0.026343916
13	0x3cca5a2c	0.0247012
14	0x3b456197	0.0030117983
15	0xbc5197da	-0.012792552
16	0x3bb51f98	0.005527448
17	0x3c45665c	0.01204833
18	0x3d00366e	0.03130191
19	0x3cb71e5d	0.022353346
20	0xbc717403	-0.014737132
21	0x3aded039	0.0016999311
22	0x3d022313	0.03177173
23	0x3d00a56f	0.03140777
24	0xbcf2216b	-0.02955695
25	0x3cee57fb	0.029094687
26	0x3cb487cc	0.02203741
27	0xbbb4088c	-0.005494183
28	0x3b2097ed	0.0024504617
29	0x3c38cf27	0.011279858
30	0x3b175c4b	0.0023095782
31	0x3bb96f97	0.0056590545
32	0x3ca2ff6e	0.019897189
33	0x3a42fbb0	0.0007438017
34	0x3aba2ac9	0.0014203425
35	0x3c25e2a8	0.01012484
36	0xbc40173d	-0.01172429
37	0x3a2651f5	0.000634461
38	0x39da8ad7	0.00041683644
39	0xbc23bd9d	-0.009993938
40	0x3bbdd48e	0.0057931608
41	0x3be902bc	0.0071109217
42	0x3c989df2	0.018630002
43	0xbc3e6d55	-0.0116227465
44	0x3c9c7b6f	0.019101826
45	0xbad3c12e	-0.0016155594
46	0x3cecfbdc	0.02892869
47	0x3a5cdafc	0.0008424965
48	0xbb7849bf	-0.0037885753
49	0xbc101154	-0.008793194
50	0xbb89f0ff	-0.004209637
51	0x3c8a7a84	0.016904123
52	0x3a6b742b	0.0008981849
53	0x3cde1960	0.02711171
54	0xbcf04342	-0.029328946
55	0xbc5db10f	-0.013530984
56	0x3b057be0	0.0020368025
57	0xbc5d2cf1	-0.013499484
58	0x3cee2b7a	0.029073466
59	0xbbecde37	-0.0072286385
60	0x3c9f794a	0.019467015
61	0xbba1c21b	-0.0049364693
62	0x3c2b0eab	0.010440509
63	0x3bc34aa5	0.005959826
64	0x3ccc888c	0.024967454
65	0x3c61d9ba	0.01378482
66	0x3c066c6d	0.008204562
67	0xbc071392	-0.008244412
68	0xb99a66a9	-0.00029449657
69	0x3bfa9d20	0.0076481253
70	0x3ba414f2	0.0050073797
71	0xbc1070b0	-0.008815929
72	0x3bac04f3	0.0052496134
73	0x3ba87345	0.0051406943
74	0x3c226fa9	0.009914317
75	0x3ca6f46e	0.020380225
76	0x3a92aa95	0.0011189753
77	0xbb702c77	-0.0036647597
78	0x3c758826	0.014986074
79	0xbaa1ab4c	-0.0012334376
80	0x3c816934	0.015797235
81	0x3c7b6e63	0.015346142
82	0xbb6b2d3e	-0.003588512
83	0x3ce8d742	0.028422955
84	0x3b85a553	0.004078546
85	0x3cc90a2f	0.024540989
86	0x3ca7e62e	0.0204955
87	0xba74c6d8	-0.00093374914
88	0xbb343ef0	-0.0027503334
89	0x3ce10860	0.027469814
90	0x3c26a956	0.010172209
91	0x3d1c3463	0.038135897
92	0x3d07036d	0.03296225
93	0xbb4ae613	-0.0030959889
94	0x3bbfc58c	0.005852407
95	0x3b925d6f	0.0044667046
96	0x3c849e7b	0.01618885
97	0xba30982b	-0.0006736542
98	0x3c4b4c73	0.012408364
99	0x3b524382	0.0032083695
100	0x3b53e37d	0.0032331639
101	0x3bc68405	0.0060582184
102	0xbae9369a	-0.0017792762
103	0x3c7c2e7a	0.01539194
104	0x3c26e11e	0.010185508
105	0x3cea3f72	0.028594706
106	0xbc2dcb05	-0.010607486
107	0xbbb69511	-0.0055719693
108	0xbc6f53c0	-0.01460737
109	0x3bb5e41f	0.005550876
110	0x3ca5a229	0.020218926
111	0x3c409900	0.011755228
112	0xbbfbd16e	-0.007684878
113	0x3be63288	0.0070250668
114	0x3cc7dda8	0.024397686
115	0x3bdc34c7	0.0067201587
116	0x39871b6e	0.00025769643
117	0x3c0dade8	0.0086474195
118	0x3cccba10	0.024991065
119	0x3cd3f5a5	0.025873968
120	0x3aa2faa2	0.0012434314
121	0x3c240020	0.010009795
122	0x3d2fada8	0.04289022
123	0x3c283c53	0.010268289
124	0x3c6ef08a	0.014583716
125	0x3c48a6bb	0.012246783
126	0xbb7e1b41	-0.0038773569
127	0x3bc5b17d	0.006033121
128	0x3c6e86b7	0.014558486
129	0x3cff17ab	0.031139215
130	0xbc0a1530	-0.008427903
131	0x3c6f0c6a	0.014590362
132	0x3c179aa6	0.00925318
133	0x3db49ffa	0.088195756
134	0xbcaf0b68	-0.021367744
135	0x3aa24e40	0.001238294
136	0x3c877802	0.016536716
137	0xbc4baa5a	-0.012430752
138	0xbc02dac3	-0.007986727
139	0xbbaaffea	-0.0052184956
140	0x3cb49ee1	0.022048416
141	0x3c7d951a	0.015477443
142	0xbd0a8de2	-0.033826716
143	0xbc85cbd6	-0.016332548
144	0xbbc93a5c	-0.00614099
145	0xbbdb8208	-0.0066988505
146	0x3caafc1f	0.020872174
147	0x3d3f1eb3	0.046660136
148	0xbba8d583	-0.0051524057
149	0xbbbc7548	-0.0057512857
150	0xbc8aefa2	-0.016959969
151	0xbaede8db	-0.0018151061
152	0xbcb5c47a	-0.022188414
153	0xb980e21e	-0.00024582533
154	0xbcaf4ec9	-0.021399872
155	0x3ca0f760	0.019649208
156	0xbc16ea12	-0.00921108
157	0xbba24dff	-0.0049531455
158	0xbbb83676	-0.0056217266
159	0xbc1dd887	-0.009634144
160	0xbc6ca086	-0.014442569
161	0x3b151db5	0.0022753302
162	0x3c7da36d	0.015480858
163	0x3cd2a0ca	0.025711436
164	0xbbc06490	-0.005871363
165	0xbccac7b4	-0.024753429
166	0xbc87e860	-0.016590297
167	0xbc791c1b	-0.015204455
168	0xbc93c914	-0.018040217
169	0xbb834216	-0.004005681
170	0xbc9afded	-0.01891991
171	0x3b199b3e	0.0023438479
172	0x3c2e5d31	0.010642336
173	0xbb70c1f9	-0.003673671
174	0xbbbd5887	-0.0057783755
175	0x3c503121	0.012707026
176	0x3d201684	0.039083973
177	0x3cdad45d	0.02671259
178	0xbc960d68	-0.01831694
179	0xbc7c2e59	-0.0153919095
180	0x3c17ba6c	0.009260755
181	0x3be1ba4b	0.006888663
182	0x3c52a979	0.012857788
183	0xbc352594	-0.011056323
184	0x3cddb368	0.027063087
185	0x3cbfd8f1	0.023418875
186	0x3be383d4	0.0069432054
187	0x3c2a98f2	0.010412442
188	0x3b86c542	0.0041128704
189	0xbb823e84	-0.0039747376
190	0xbbd5abb0	-0.006520711
191	0x3be24c4f	0.0069060693
192	0xbc42632e	-0.011864467
193	0xbc2aeddc	-0.010432687
194	0x3d39aca8	0.045330673
195	0x3d0dc3e2	0.034610637
196	0xbcc55b29	-0.02409132
197	0x3d8384eb	0.064218365
198	0xbcf4b6c3	-0.029872304
199	0x3ca35572	0.019938204
200	0xbd3fae89	-0.04679731
201	0x3c829492	0.015939984
202	0xbc325f2d	-0.0108869495
203	0x3c6776f3	0.014127481
204	0x3c7a1b0a	0.015265236
205	0xbb4154b6	-0.0029499955
206	0xbc869d07	-0.016432298
207	0xbc6dfe20	-0.01452592
208	0x3d1b5c7e	0.037930004
209	0x3c36523f	0.011128007
210	0x3d0e5c25	0.034755845
211	0x3bd12a41	0.006383211
212	0xbbb52204	-0.0055277366
213	0xbaba51ad	-0.0014215015
214	0xbc4ea978	-0.012613647
215	0xbb6865e2	-0.0035461118
216	0x3bc577e7	0.0060262564
217	0x3c9f9b91	0.01948336
218	0x3d0b11af	0.03395241
219	0xbc63327a	-0.013867015
220	0xbbea8566	-0.0071570156
221	0x3d352938	0.044228762
222	0x3c86becb	0.016448399
223	0x3cc394ab	0.023874601
224	0xbc0994d8	-0.0083973035
225	0x3d3e735e	0.04649674
226	0xbc63337b	-0.013867254
227	0xb9e6609c	-0.00043940998
228	0xbbdcdb5a	-0.006740016
229	0x3d0208a2	0.031746514
230	0x3c5b064b	0.0133682
231	0xbc3dccfc	-0.011584517
232	0xbbe21c2e	-0.006900332
233	0x3be2577f	0.006907403
234	0xbc3cae48	-0.011516161
235	0xbc168b22	-0.009188445
236	0x3cb86c36	0.022512536
237	0x37fca483	3.0117348e-05
238	0x3c052b6b	0.008128027
239	0xbc9ad4fa	-0.018900383
240	0xbcb2274b	-0.021747252
241	0x3c0a8fe2	0.008457156
242	0xbbe78334	-0.007065201
243	0x3d1acaf8	0.037791222
244	0x3bb95c77	0.0056567746
245	0xbadeeb58	-0.0017007394
246	0xbc926621	-0.017870964
247	0xbb5d53fd	-0.0033771985
248	0x3ca132d0	0.01967755
249	0x3c803917	0.015652223
250	0x3c9d1f90	0.01918009
251	0x3bdc774d	0.006728089
252	0x3d18578a	0.03719286
253	0xbaeaf730	-0.0017926451
254	0x3c9b46b0	0.018954605
255	0x3d0f5e40	0.035001993
